cifar_net.pth (torch, 250887 bytes, 10 tensors)

conv1.weight f4 [6, 3, 5, 5]
000000 6d e4 8a 3e b6 5d 96 3e e2 2c 9d 3e bd c6 ae 3e
       0.271274 0.2936837 0.30698305 0.34136
000010 59 4b b7 3e 56 18 3a 3e 11 ca 29 3e 82 7d 70 3e
       0.35799673 0.18173346 0.16580988 0.23485377
000020 6a aa c0 3e 66 e6 6d 3e 38 8a a8 bc 8a 84 33 bc
       0.37630016 0.23232421 -0.02057372 -0.010956893
000030 01 fb fe bb f0 77 17 3e bc 18 a9 bd 40 a5 1c be
       -0.007781387 0.14791846 -0.08256671 -0.15297413
000040 aa 59 a4 3c 2d 52 9f bd 6d 51 79 be f2 ee a8 be
       0.020062286 -0.07779346 -0.24347468 -0.329948
000050 9b db 0a be 86 01 a5 be 65 69 ed be 8c 6f f6 be
       -0.13560335 -0.32227725 -0.46369472 -0.4813198
000060 7d a6 2c be e8 60 da be b7 a2 9c be 25 5b b8 be
       -0.16860385 -0.4265206 -0.30592892 -0.36007038
000070 35 43 b5 be 66 d5 44 be 22 e0 97 be 9a fa 4c be
       -0.35402837 -0.1922203 -0.29663187 -0.20017472
000080 0d 12 b5 bd 60 31 26 be 5c f7 91 be 56 c5 05 be
       -0.088413335 -0.16229773 -0.28509033 -0.13063559
000090 d8 cf 49 bd fb 68 3b be ca 44 2b bd b2 ca 9b be
       -0.04927048 -0.18301766 -0.04181365 -0.30428082
0000a0 a8 c2 59 3d 1d 73 9f bd 97 a1 e1 3c 15 89 84 be
       0.053164154 -0.07785628 0.027542872 -0.25885835
0000b0 25 99 5c be 2f 85 0c 3e 3a ed 62 bb 0d 45 2d 3d
       -0.21542795 0.1372268 -0.0034626261 0.04230218
0000c0 e3 f7 58 bd 9b 49 82 3e 10 20 91 bd ec ee f1 bd
       -0.05297078 0.25446782 -0.070861936 -0.11813149
0000d0 6f da 91 bd fe 5c 0e be 02 ff dd bd ba 02 84 bd
       -0.07121741 -0.13902661 -0.108396545 -0.064458326
0000e0 bb c4 8e ba 24 3d cc 3d 0b 5a 51 3e 3d 50 d5 3d
       -0.001089237 0.09972599 0.20444505 0.10415695
0000f0 79 6e d6 bc c6 42 3d 3c 18 85 83 3d d1 3c bf 3d
       -0.026175724 0.011551565 0.0642187 0.09337772
000100 e8 d5 5f 3d 7d 3a 7e 3e 37 aa 7d 3e 68 da 81 3d
       0.054647356 0.24826999 0.24771963 0.06340486
000110 73 b3 fe bc 47 00 58 bd 34 aa 87 3d 85 0b 1d bc
       -0.031091427 -0.05273464 0.066242605 -0.009585266
000120 a0 3f 64 bd 91 7a 00 3e 8f 65 0c 3e 3a ed 36 3d
       -0.05572474 0.12546755 0.13710617 0.04465983
000130 ef 42 d9 3d e6 e9 19 3e 8c 44 3b 3d 50 0e 29 3e
       0.1060847 0.15030631 0.04571967 0.16509366
000140 63 a1 81 be 78 b7 fb bd 64 a1 10 be d4 cf 66 be
       -0.2531844 -0.12290853 -0.14124066 -0.22540218
000150 81 f7 58 be 98 ad 92 be ff 74 16 bf 20 98 23 bf
       -0.21188165 -0.28648067 -0.5877227 -0.63904
000160 27 d1 1b bf 64 43 ac be 5f d8 84 3d e9 cd db 3d
       -0.60866016 -0.33645165 0.06486582 0.107326336
000170 df fe 1e 3e e3 47 82 3d 68 b4 8d bd 75 04 9a 3e
       0.15526913 0.063613676 -0.069191754 0.30081525
000180 68 4e 9f 3e b0 30 cf 3e e5 dd 9b 3e ea c8 9a 3e
       0.31114507 0.40466833 0.3044273 0.3023141
000190 3f dc 9c 3c dd 42 2b 3e eb f5 04 3e eb cc 1d 3e
       0.01914799 0.16724725 0.12984435 0.15410201
0001a0 6c bd 3d 3e a7 bd 36 bd 7a b4 8c bd 3b bd 15 be
       0.1852929 -0.04461446 -0.06870361 -0.14622967
0001b0 09 9a a2 bd 87 da 53 bd 1a b0 5a be 18 c9 d2 be
       -0.07939536 -0.051722076 -0.2135624 -0.41169047
0001c0 a8 c6 09 bf 1b 00 bb be ba 18 c6 be 07 fc 58 bd
       -0.5381875 -0.36523518 -0.3869074 -0.052974727
0001d0 20 d2 1b 3e b1 6a 19 3d 4d 53 20 3e dc ba db bd
       0.15216875 0.037455264 0.15656777 -0.10729
0001e0 dc fb 85 3e c7 bd 6d 3e 95 29 80 3e 29 4a f2 3d
       0.26168716 0.23216926 0.25031725 0.11830551
0001f0 81 15 dc bd e2 6d 3d 3e 1f 36 84 3e 8a dc 62 3e
       -0.10746289 0.18498948 0.2582254 0.22154441
000200 64 c9 c8 3e a6 7a 1d 3e a9 7b ca 3d ed 6c 93 3d
       0.3921615 0.15378818 0.098868676 0.0719851
000210 c7 c4 71 3c fe 2e 03 3e fe c2 41 3e 61 40 d7 bd
       0.014756388 0.12810895 0.1892204 -0.10510326
000220 65 11 9b be 9f db 9e be c4 9e 3c be b5 ea 0d be
       -0.30286708 -0.31026933 -0.1841994 -0.13859065
000230 e5 79 9c 3d 5b 86 b1 3d 8a 60 35 3e 9a 7c 74 3d
       0.07640437 0.086682044 0.17712608 0.05968914
000240 ec 00 9e 3d f7 ea 05 bd 21 cd 2f 3e 93 b5 6c 3e
       0.077150196 -0.032694783 0.17168094 0.2311614
000250 ec b5 23 3e 36 32 af 3c 14 be 30 be d6 40 03 bd
       0.15987366 0.021386247 -0.17260009 -0.032044254
000260 6c 5a 51 be 80 e8 05 be 09 f4 09 be 08 26 ed 3c
       -0.2044465 -0.13076973 -0.13471998 0.028948799
000270 c1 b2 a4 bd 7f af 8d bc 8b 8c 8a bd 91 53 eb bd
       -0.08041907 -0.017295597 -0.06765088 -0.114905484
000280 7a 94 c1 3d d1 08 a3 3d 0b 7b 17 3b 70 1f fd bd
       0.09452148 0.07960666 0.002311411 -0.12359512
000290 d6 90 53 bd e6 20 00 3e 58 8e 5f 3e ae 88 9b 3d
       -0.0516518 0.1251255 0.21831644 0.07594429
0002a0 9d 29 a6 3c 4a 10 a2 bb ee d4 87 3b 3f 1e 92 3d
       0.020283515 -0.0049457895 0.0041452562 0.07134675
0002b0 a3 af c6 3d 36 3e 30 3d 0f 23 d7 bc 4a 4e 78 bd
       0.09701469 0.04302808 -0.026261834 -0.060621537
0002c0 06 d5 e5 bb 2e b4 1a bd c5 f0 8b bd 27 8a 35 3d
       -0.0070139198 -0.03776949 -0.068330325 0.044321205
0002d0 f6 c5 0e 3d 79 f4 04 bd 27 7d cf bd 6f 33 09 bd
       0.03485676 -0.03245971 -0.10131293 -0.033496317
0002e0 07 2a 39 bd 3a 5b d4 3d ac b8 ac 3b d3 ab 3b bd
       -0.045206096 0.103689626 0.005271038 -0.04581816
0002f0 bc 4e 8f 3d 5e f2 96 bd c9 80 a2 3d 48 91 62 3d
       0.06997439 -0.073704466 0.0793472 0.055314332
000300 77 d6 b9 bc 7b 12 3d 3d 93 ad d5 3c 71 ce 69 3d
       -0.022685273 0.046160202 0.026083743 0.057081643
000310 c6 e8 ad 3d 5f c0 08 3e 83 d9 f1 3d e6 33 36 3d
       0.08491664 0.13354634 0.11809065 0.044483088
000320 07 01 7d 3d 16 fe 19 bc 12 23 4f 3d b6 94 ec 3c
       0.061768558 -0.009398958 0.050570555 0.028879505
000330 cb fd c8 3c d4 4c c4 bc 73 72 1d 3d 3a 24 c4 3c
       0.02453508 -0.023962416 0.038439225 0.023943055
000340 8c c6 97 3b 70 6d 5c 3d fa 7f 08 bb 22 38 fe 3d
       0.004631823 0.053815305 -0.0020828233 0.1241305
000350 e5 a7 83 3c b2 75 a1 3c 8e ae 15 bd 80 c5 0a 3e
       0.01607127 0.019709442 -0.03654342 0.13551903
000360 f7 b4 44 3d d2 d6 bd b7 6f 93 99 bd b3 8a aa bd
       0.048024144 -2.263059e-05 -0.07498824 -0.08327236
000370 d9 b4 01 3e 4f 8d 36 3e d6 4b b3 3d a0 78 e1 bb
       0.12666644 0.17827342 0.08754699 -0.0068808347
000380 bf 29 c1 bd 28 50 3c be 9c 35 01 be fd 25 3e be
       -0.094317906 -0.18389952 -0.12618107 -0.18569179
000390 e0 e2 90 be 4e d4 0f bc 17 09 82 bb 1e 78 9e be
       -0.28298092 -0.008778645 -0.0039683688 -0.30951017
0003a0 7c 3e af bd a4 78 6a 3d 7d 58 35 bd d4 9b c9 3c
       -0.0855684 0.057243958 -0.044273842 0.024610437
0003b0 8b 27 cd be 0f 12 ec bd 5f 91 8f 3e 45 c6 b4 bc
       -0.4006923 -0.11526882 0.28040597 -0.022067199
0003c0 c9 97 0a 3e d7 e8 48 bc b7 27 ed bb a1 78 ec 3b
       0.13534464 -0.012262545 -0.0072374004 0.0072165285
0003d0 dd 13 a2 be 8e f7 13 be c8 8e 07 3e cb 05 f7 3d
       -0.3165578 -0.14449903 0.1323806 0.12061652
0003e0 ea 6e 67 be 83 fc a5 be 75 15 13 3d 9c 18 9e 3e
       -0.22600904 -0.32419214 0.035909135 0.3087815
0003f0 3b ee 36 3e e7 7a 87 3d e6 f4 f7 3c 9c b4 b0 3e
       0.17864315 0.06615239 0.030268144 0.34512794

conv1.bias f4 [6]
000000 21 14 b3 be b0 55 7e be 95 f3 d1 3e 97 60 79 bc
       -0.34976295 -0.24837375 0.4100615 -0.015220783
000010 c7 34 93 3e 5c 4f 56 be
       0.28751203 -0.2092871

conv2.weight f4 [16, 6, 5, 5]
000000 0b 66 82 3d c3 a0 d0 bd dc 5e 27 be 41 85 ab bd
       0.063671194 -0.10186913 -0.1634478 -0.083750255
000010 1a 35 1a be cb e5 71 3d 77 c6 87 3d 53 6e 04 3c
       -0.15059319 0.05905704 0.06629651 0.008082944
000020 2a 55 1d be 7d 31 36 bd 57 eb d2 3d 58 a9 98 3d
       -0.15364519 -0.04448079 0.10298794 0.07454175
000030 e1 8d 04 be 32 55 0b 3c 6d ee fd bd 25 f3 32 3d
       -0.12944748 0.008504199 -0.12398992 0.043688912
000040 93 8e 03 3e 12 f8 8f bd 31 07 85 3d 74 dc c1 bd
       0.12847356 -0.070297375 0.06495512 -0.09465876
000050 ad 1c 15 3c bc 73 07 3b 1c e4 99 3d eb 12 64 bd
       0.009101075 0.0020668348 0.075142115 -0.055682104
000060 5c a7 4a bd f6 ad 72 be c3 68 1a be 46 66 49 bd
       -0.049476013 -0.23699173 -0.15079026 -0.0491698
000070 50 e0 f2 bd c8 5f 83 bd 52 a8 1b be 62 ca 4d be
       -0.118591905 -0.06414753 -0.15200928 -0.20096734
000080 da a6 0c be 12 71 10 be 7c 19 13 bd 38 e1 6b bd
       -0.13735524 -0.14105633 -0.035912976 -0.057587832
000090 a8 60 a8 bd 52 44 b1 bd 6d dc 2f be f1 a4 0e be
       -0.08221561 -0.08655609 -0.1717393 -0.13930108
0000a0 be f0 00 3d 75 10 4a bd 04 e4 73 bd 63 7a 0b bd
       0.03147959 -0.0493321 -0.059543625 -0.034052264
0000b0 fc c8 8d bd 8b 6b 27 3c 41 f5 1f bd c9 ba 19 bd
       -0.069231 0.010218511 -0.03905225 -0.037531648
0000c0 94 96 0f bd 8c 21 9a 39 23 9f 9d 3d 61 51 09 3d
       -0.035055712 0.00029398163 0.076963685 0.033524875
0000d0 32 cf 8b bc 2f ec 0f bc db 1f 0d 3d b5 3f 38 bd
       -0.017066572 -0.008784338 0.034454208 -0.04498263
0000e0 18 fd a7 bd a8 18 c3 bd 93 d9 1e 3d 97 37 0c 3d
       -0.08202571 -0.09526187 0.038781714 0.034232702
0000f0 a5 1f fb bc e9 8c c0 bb 7b 53 1a bd 51 af 50 3d
       -0.030654738 -0.005876173 -0.03767727 0.050948445
000100 51 9b 4c 3d 0a 5d 8f ba 8d d4 7f 3d 2f 67 f9 3d
       0.04995281 -0.0010937762 0.062458564 0.12177884
000110 a8 b7 58 3d b4 a0 3a 3e 39 84 2c 3e 88 e5 00 3e
       0.052909523 0.18225366 0.16847314 0.12587559
000120 29 9d 34 3e ca c0 b9 3d 0f d3 73 3e 86 f9 f4 bd
       0.17638077 0.09069975 0.23810981 -0.11961655
000130 86 a4 37 be 7f 93 2e be 59 a2 48 be e7 f8 0a be
       -0.17933854 -0.17048453 -0.1959318 -0.13571511
000140 7c 44 52 bd f4 4d a8 bd 18 2b 9d bd e0 1c 97 bd
       -0.051334843 -0.082179934 -0.07674235 -0.07378554
000150 7f 88 69 3d 6d ad 8a bd a9 02 da bd 44 f5 45 3b
       0.05701494 -0.067713596 -0.10645039 0.0030206004
000160 35 7e 88 bd e6 e4 bf bc 1d 8a 83 bd b8 b0 03 be
       -0.06664697 -0.023424577 -0.064228274 -0.12860382
000170 6f 31 f9 ba 35 97 09 bd ef bb f4 3d 94 49 28 bb
       -0.0019011925 -0.033591468 0.11949908 -0.0025678622
000180 e2 2a 7d 3d ef 41 0b bc b2 e9 b8 3b 9d cb 44 3e
       0.061808474 -0.0084996065 0.005643093 0.19218297
000190 5b 4c 85 3e 01 dc 4d 3e b4 0d f5 3d 7e c3 e8 3d
       0.26034817 0.20103456 0.11965504 0.11365412
0001a0 83 56 17 3e af ca 0c bd fe 41 99 bd fc a8 34 bd
       0.14779095 -0.03437298 -0.0748329 -0.04410647
0001b0 3c 14 b7 bd e0 94 87 3d e0 15 36 3c ff 4e 64 bd
       -0.08939406 0.066201925 0.011113614 -0.0557394
0001c0 3b 66 80 3b 7e 6a 04 be d3 ff 5e bd f1 40 14 3b
       0.003918437 -0.12931249 -0.05444319 0.0022621716
0001d0 7a 9f 1e 3b b1 68 87 bd 74 d9 e5 3c 34 d0 0d 3e
       0.0024203942 -0.06611765 0.028057791 0.13848954
0001e0 47 22 99 3d 44 1a 93 3d 36 9c 8e 3b 49 1a 32 bd
       0.07477241 0.07182744 0.004352118 -0.0434821
0001f0 fa b9 1e 3e ba ab 2b be ab b7 01 be 6e 68 c1 bd
       0.15500632 -0.16764727 -0.1266772 -0.094437465
000200 98 d5 5b be 88 ad b6 be 71 58 80 be 57 fb 75 be
       -0.21468198 -0.3567927 -0.25067475 -0.2402166
000210 9b 90 bd bd 31 ed f3 bd 50 28 c0 bd 4f 56 c7 bd
       -0.09256097 -0.11910475 -0.09382689 -0.09733259
000220 e5 0d 37 be a2 5b 24 be bd 6f d9 bd bf 13 9c 3d
       -0.17876394 -0.1605058 -0.106170155 0.07620954
000230 9d 8b 9a 3d 42 50 16 bd 7f c6 a9 3d 43 bd 48 bd
       0.0754616 -0.036697634 0.08289813 -0.04900862
000240 15 9c 88 3d d4 c7 83 3d 93 93 2f 3d 6d e1 23 3e
       0.06670395 0.064345986 0.042865347 0.16003962
000250 2e 4f 7f 3d 53 8a ef 3d 7b d7 f1 3d 2d 44 dd 3c
       0.06233137 0.11696305 0.11808678 0.027010048
000260 c3 b8 a5 bd c8 b3 4c bb a3 7f e0 3d 0b 50 79 3d
       -0.08091881 -0.0031235088 0.10961845 0.06086735
000270 96 27 af 3d 4a b4 50 bd f2 a8 17 3d c5 f7 82 3d
       0.08552472 -0.050953187 0.037026353 0.063949145
000280 83 ce 37 3d fd 0a 05 bc 88 01 7f bc 51 cc 91 bd
       0.04487468 -0.008120296 -0.01556433 -0.071190484
000290 fa 57 6a bd 60 96 a5 3d ff 08 8a 3d b1 58 ba 3d
       -0.057212807 0.080853224 0.06739997 0.09098948
0002a0 5c b6 d3 bb 67 97 8d 3d 90 31 b7 bd 81 53 d7 bc
       -0.006460948 0.06913643 -0.08945 -0.026284935
0002b0 da ec 06 3e cd 38 4c bb 33 12 f9 bd 6e 8f 43 bd
       0.13176289 -0.0031161786 -0.12161674 -0.047744207
0002c0 01 b7 9c bd 4a ef a0 3c 81 de 32 3d 96 fb 0c bd
       -0.07652093 0.019645352 0.043669228 -0.03441962
0002d0 24 ba db bd 29 db 2e be 53 83 e2 bd 9e e2 90 bd
       -0.10728863 -0.1707579 -0.11060204 -0.07074474
0002e0 93 7b 9b 3b ee 47 05 bd 0b 22 26 be 97 5c aa bd
       0.004744956 -0.0325393 -0.16223924 -0.08318441
0002f0 8f 16 9c bd c2 dd 03 bd 92 55 dd 3c 9c 6a 1a be
       -0.0762149 -0.032193907 0.027018342 -0.15079731
000300 5b 79 cb bd b6 95 51 bd bf 03 15 3d 82 64 4c bd
       -0.09935256 -0.051168166 0.036380526 -0.04990054
000310 4c f7 e2 3d b8 3c 09 3e 3d 1e 27 3e 9e d3 67 3e
       0.110823244 0.13402069 0.16320129 0.2263932
000320 4b 30 aa bd 99 07 d0 bd 6f f0 83 3d 9e 21 0e 3d
       -0.083099924 -0.10157699 0.064423434 0.03470003
000330 a0 e8 f9 3c 67 ab d7 bd 17 2c 0b be fc 2b 73 bc
       0.030506432 -0.10530739 -0.13591038 -0.01484203
000340 33 65 08 3d 5e bc 32 bd db ae eb bd 2b 14 03 be
       0.033299636 -0.043636672 -0.115079604 -0.12800662
000350 f0 2c ac bd 85 5a d3 bb 5f f5 f2 bd cc 99 10 be
       -0.08407009 -0.0064499998 -0.11863207 -0.14121169
000360 95 1a b7 bd aa b9 25 3d 74 37 7e 3d f8 a2 20 bd
       -0.08940617 0.040460266 0.062064603 -0.03921792
000370 5b a7 2d be 7c 4c 24 bd 32 9e dc bd 1a eb f4 bd
       -0.16958372 -0.040112004 -0.10772361 -0.119589046
000380 82 d8 ca 3b ca cd 42 bd e0 25 33 be f3 8b 58 bd
       0.0061903605 -0.047559537 -0.17494917 -0.05286784
000390 a3 c4 c6 3c c9 cc 8d bd d2 ab 40 3d a5 6d 95 be
       0.024263686 -0.06923825 0.04703886 -0.29185215
0003a0 15 7b c1 bc a6 22 a1 bd c9 1d b0 bd f7 de 7c 3d
       -0.02361826 -0.07867937 -0.08599431 0.061736073
0003b0 64 d9 55 be dd 53 54 bd 05 7a 42 3d 4e 52 f0 3a
       -0.20883709 -0.05183779 0.04747965 0.0018335076
0003c0 d5 c2 33 3d cd 48 62 bd 0c 1c 41 bd 64 ed c2 3d
       0.04388698 -0.05524521 -0.04714589 0.09517935
0003d0 12 49 ce 3d 94 4e d7 3d a7 d4 cc bb 82 b5 50 bd
       0.10072531 0.105130345 -0.006250936 -0.05095435
0003e0 07 69 8f bd 77 77 2f 3a 28 52 48 3d 22 1c 8b 3d
       -0.07002454 0.0006693522 0.048906475 0.06792475
0003f0 fc 74 8e 3d 00 7d 39 bd 12 51 1a bb 2e 63 5b 3d
       0.06955907 -0.045285225 -0.0023546857 0.053561382

conv2.bias f4 [16]
000000 fa e9 09 3f 26 df 8b be 3a 3f 71 3e 19 f8 85 3f
       0.53872645 -0.27318686 0.23559275 1.0466338
000010 5b 88 94 3d 6c 50 ab be 34 a2 21 be 93 db fd bb
       0.0725257 -0.33459795 -0.15784532 -0.0077471226
000020 d3 dd 80 bd 75 31 60 bd e0 5a 99 be cb d2 c4 3e
       -0.062923096 -0.054734666 -0.29952145 0.38442072
000030 a0 3f b5 3e 3a 77 83 3d bf a9 0a bf c1 1e e2 bc
       0.35400105 0.06419225 -0.5416526 -0.027602555

fc1.weight f4 [120, 400]
000000 f2 1b 61 bc 17 e7 c4 bc a5 80 c5 bc f4 ea 0d bd
       -0.013739573 -0.024035973 -0.024109194 -0.034647897
000010 9b 27 04 bc 60 dd 12 bd 1f 6c 11 3d 7c 15 9f bd
       -0.008066083 -0.03585565 0.035503503 -0.0776777
000020 1e 51 60 3b 5b c4 8f bc 03 65 f8 3c d1 3c c9 bc
       0.0034228037 -0.017549684 0.030321604 -0.024565132
000030 69 3d 54 bd 98 4d 8f bd d0 fc 17 bd 9d 3e 6d 3d
       -0.051816378 -0.06997222 -0.037106335 0.05792104
000040 79 6a 7a 3d cb 43 71 3d 68 42 4f 3d 28 51 d5 bc
       0.061136696 0.058902543 0.05060044 -0.026039675
000050 00 bb b7 3d 14 13 12 3d 82 c2 5b bc 0a de 80 bc
       0.08971214 0.035662726 -0.0134130735 -0.015730876
000060 73 14 2e 3b 98 06 99 bc 81 77 a3 bc 5d 55 48 bd
       0.0026562482 -0.018679902 -0.019954445 -0.048909534
000070 29 54 10 3d 13 d0 7b 3c 62 77 6a bd ab 9b 16 bd
       0.03523651 0.015369433 -0.05724276 -0.03676955
000080 1f a9 02 bd f1 a6 52 3c 58 3f 93 bd 98 d4 04 3d
       -0.031899568 0.012857185 -0.07189816 0.032429308
000090 e2 65 dc bc 7a f3 07 bd 16 d4 10 bd 88 b6 9c bd
       -0.02690405 -0.03319118 -0.03535851 -0.076520026
0000a0 61 c2 78 3d 9c 9d 16 3b 15 1a 26 3c a7 18 e2 bc
       0.06073225 0.0022982126 0.010138054 -0.027599646
0000b0 21 b3 94 bd 57 05 a8 3c 76 7b df ba b4 3f 43 3b
       -0.072607286 0.020510359 -0.0017050344 0.0029792609
0000c0 5f d6 12 bd e5 d2 df bc 27 2d 2a bd c9 02 20 bd
       -0.03584897 -0.027322242 -0.041546967 -0.039065156
0000d0 9d a5 80 3d 9f 21 1e bc 35 ec 37 bd 98 34 a0 bb
       0.06281588 -0.009651571 -0.044903 -0.004889082
0000e0 c0 3c f5 bc 8e 4a c2 3c 2b b1 9c bc 82 6c b7 bb
       -0.029936194 0.023717191 -0.019127449 -0.005597652
0000f0 14 0e ac bd 56 22 b9 bc 7d 81 97 bd ab 5f 03 bd
       -0.08401123 -0.02259938 -0.07397745 -0.032073658
000100 9d ad 0e bd e4 fd f1 bd 0d 88 b1 bd b0 0e a0 bd
       -0.03483354 -0.11816004 -0.08668528 -0.078153014
000110 b5 69 84 bb dd ce 0b 3c 4e 3e a7 3c 23 4b 02 3c
       -0.0040409216 0.008533207 0.020415451 0.007952484
000120 91 ac 11 bd 9d 83 41 bd 77 b9 8a bd 2c a3 af 3c
       -0.035564963 -0.047244657 -0.06773656 0.021440111
000130 bc 0f 32 3c 9d a5 2e 3d 46 21 88 3d 86 87 6e 3d
       0.010868009 0.04263841 0.066469714 0.058234714
000140 55 26 92 bd 2f d2 51 3d 92 ce 9a 3d 65 29 ab 3d
       -0.071362175 0.051225837 0.075589314 0.08357505
000150 9f 5b 63 3d 0a ec 82 bd 72 75 6f 3d 45 b3 c3 3d
       0.0555073 -0.06392677 0.058461614 0.09555677
000160 59 79 e3 3d 87 e9 d7 3d 29 d9 39 3b a8 be 39 3d
       0.111071296 0.10542589 0.0028358197 0.04534784
000170 01 ff 79 3d c5 c5 b6 3c 82 ca 50 3d c3 1c 66 bd
       0.061034206 0.0223111 0.050974376 -0.056179773
000180 df a3 83 bd ff 52 37 bd ae 48 a0 bd 99 8e 48 3c
       -0.0642774 -0.044756886 -0.078263626 0.012241029
000190 08 68 d4 3d e7 8e 8b 3d bf f1 ad 3d 76 67 eb 3c
       0.10371405 0.06814366 0.08493375 0.028735857
0001a0 b2 b9 74 3d b3 52 99 3d 06 56 5a 3d 57 8f bb bc
       0.059747405 0.07486477 0.053304695 -0.022895498
0001b0 21 1c b5 bc be 3f 30 3c b9 44 b4 3d dd a1 81 bd
       -0.02210814 0.010757385 0.0880217 -0.06329701
0001c0 9e f6 ee 3c d5 36 ce 3b 03 56 f4 3c a8 74 82 3c
       0.02917033 0.0062931576 0.02982617 0.015924767
0001d0 b6 61 35 bd 52 85 f9 3b a4 a2 1a 3b a4 ec 6a 3d
       -0.044282638 0.00761477 0.0023595477 0.057354584
0001e0 78 01 ad 3c 3f b4 93 bd 9f d8 cf bc f3 d3 2f bd
       0.021118864 -0.072121136 -0.025371848 -0.04292674
0001f0 54 1a c0 3d f3 6d 77 3d a4 db a7 bc 08 fb 69 3c
       0.09380022 0.06040759 -0.020490475 0.014281042
000200 3b 05 2d bc bd 23 f2 3c 17 fa 74 3c d8 9e 40 bd
       -0.010560329 0.029558057 0.014952204 -0.047026485
000210 5f 70 a9 bd 11 1d 78 bd 27 e8 58 bd 20 98 d9 3b
       -0.08273386 -0.060574595 -0.052955773 0.006640449
000220 5e 84 c7 bd cc b2 d4 bd 83 e7 aa bd 33 d5 94 bd
       -0.09742044 -0.10385665 -0.083449386 -0.07267227
000230 ca c7 9a bd 8e a4 88 bd eb c8 f5 bd 31 ac 86 bd
       -0.07557638 -0.06672011 -0.12001213 -0.06575812
000240 c5 a7 ca 3a aa 3d 88 bb 25 81 92 3d 55 ff 7d 3d
       0.0015461376 -0.0041577416 0.071535386 0.06201108
000250 e0 e5 c1 ba af e5 57 3b 17 d1 ca bc 27 b1 96 bb
       -0.001479324 0.0032943299 -0.024757905 -0.004598755
000260 96 2a 18 3d d1 79 7a 3d cb e5 2f 3d 43 72 6a bd
       0.037149988 0.06115133 0.042943757 -0.057237875
000270 5e 7c 25 bd b6 6b df 3c 2d 5f 07 3d f4 aa ec bc
       -0.04040181 0.02727304 0.03304975 -0.02889011
000280 62 90 6a bd 62 7d 36 bc ef 52 25 bc 4a 1e 8f bd
       -0.0572666 -0.011138292 -0.010090574 -0.06988199
000290 f0 12 5f bd f6 ce 76 bd 8c 34 3b bc a9 3d 27 3c
       -0.05446142 -0.060255967 -0.011426102 0.010207572
0002a0 3d 4e a6 bd 9c f2 2e 3c f5 36 44 bd fa 49 83 bd
       -0.081203915 0.01067796 -0.047903974 -0.06410594
0002b0 3b c7 50 bc 5f f3 1b 3b 4c d7 a5 bd 4d f0 17 bd
       -0.012742813 0.0023796184 -0.08097705 -0.037094403
0002c0 57 9d 8b bc 12 15 03 3c b6 bb dc bc eb e9 a6 bb
       -0.017042799 0.008000629 -0.026944976 -0.005093803
0002d0 3c 32 0b bc 78 7d 74 bd 77 e5 5e bd 87 3f 44 bd
       -0.0084958635 -0.05968997 -0.054418053 -0.047912147
0002e0 9f 39 43 bd ae a1 b1 3c 14 2d 59 3d e5 f3 15 bd
       -0.047662374 0.02168354 0.053021505 -0.03660955
0002f0 f4 63 cc 3c e0 b9 ce 3c 4e 4e 53 3a fa 5e 74 3d
       0.024950005 0.025235116 0.00080606795 0.05966089
000300 82 93 52 3c 69 30 16 bd b5 14 19 3a 3f 14 44 3d
       0.012852551 -0.03666726 0.00058395724 0.04787087
000310 5a 8c 24 3d 09 39 33 3d 55 79 49 3d 4a 21 cc bc
       0.040172912 0.043755565 0.049187977 -0.024918217
000320 94 d0 0f 3d 53 d7 17 bd 72 84 0e 3d 8e ae d6 bc
       0.035111025 -0.037070584 0.03479428 -0.026206281
000330 51 93 cb bc ce 58 3e 3c 7b da 84 3c 96 b6 2d bd
       -0.02485052 0.011617852 0.01621746 -0.042410456
000340 e2 e3 1b 3d 7c c7 cb bc 29 fb d6 bc 35 6e db bc
       0.038059123 -0.024875395 -0.02624281 -0.02678595
000350 a4 90 cc 3c cf 3b 80 bc a0 55 03 bd 87 d7 d4 bb
       0.024971314 -0.015653519 -0.03206408 -0.0064954194
000360 a2 ce 58 3d 35 90 b6 3c 31 54 76 bd 32 6b d9 3c
       0.052931435 0.02228556 -0.060138885 0.026540373
000370 4c 0c e1 bc c0 39 35 bd 8a c0 00 bc 09 04 3f 3c
       -0.027471684 -0.044244528 -0.007858405 0.011658677
000380 1a 14 80 bd 17 23 44 3d 1e 11 15 3d c3 2d 12 bd
       -0.06253834 0.047885027 0.036393277 -0.035688173
000390 cd 59 5f bb 27 4f 8b 3d 24 2c 49 bd fc 8e 60 bd
       -0.0034080625 0.068022065 -0.04911436 -0.05482386
0003a0 21 fa f0 3c 8f 05 41 bd 57 fc d4 bc b2 36 5d 3c
       0.029416146 -0.04712444 -0.025999231 0.01350181
0003b0 49 5d 38 bd d3 9e 41 bd e5 94 81 bd 81 92 66 bd
       -0.04501084 -0.047270607 -0.063272275 -0.05629206
0003c0 1d 7c 0b bd 81 0c 23 bc 26 a2 94 bd 9d 32 1f bd
       -0.03405391 -0.009951712 -0.0725749 -0.038866628
0003d0 3d df 19 bd 34 91 33 bc 58 fc 4f b8 1f 66 46 bd
       -0.037566412 -0.010959912 -4.958766e-05 -0.048437234
0003e0 b6 bc 73 bd 8e 42 4f bd f6 df 78 bd ce f1 c8 bb
       -0.05950614 -0.05060058 -0.06076046 -0.006132341
0003f0 fa ab 95 3d f4 64 e7 3c 33 b9 bf bc 3c 8f 90 bc
       0.073081926 0.02824638 -0.02340374 -0.017646424

fc1.bias f4 [120]
000000 67 2e ee 3d e4 23 14 bd a5 14 92 3c 0c b9 9b 3d
       0.11629944 -0.03616704 0.01783211 0.07603654
000010 c3 f1 11 3c 32 e4 71 3e f6 2f 37 be 61 53 a2 bd
       0.008907738 0.23622206 -0.1788939 -0.079260595
000020 3a bc 64 3d 1b 26 8c 3d 63 13 66 bc 50 4e 00 3e
       0.05584357 0.068432055 -0.014042708 0.12529874
000030 88 b6 56 bd eb 91 cf bd 23 5c 82 3c 02 49 9d bd
       -0.05242017 -0.101352535 0.015913075 -0.07679941
000040 a9 d8 13 bc 14 52 e1 bd 35 b8 e7 bc 2d d1 39 bd
       -0.009023824 -0.11001983 -0.028286079 -0.0453655
000050 a2 3b d0 bd e3 54 21 bd 34 13 ac 3c c0 7c e9 3d
       -0.10167624 -0.039387595 0.02100525 0.11400747
000060 f3 a8 a6 ba af 47 3e bc 71 05 47 bc df 05 b9 3d
       -0.0012715146 -0.01161377 -0.012147293 0.09034323
000070 63 88 88 3d 1c 7f f0 bc f1 44 ef bd 87 c3 a9 3c
       0.06666639 -0.029357485 -0.116830714 0.020723118
000080 52 17 9b 3d 16 15 4b bd e4 c8 e3 3d 42 fc bb bc
       0.07572807 -0.049580656 0.11122301 -0.022947434
000090 d4 7f 1b 3d 12 15 b0 bd cd 2e 19 bd 95 70 9a 3c
       0.037963703 -0.08597769 -0.03739815 0.018852511
0000a0 49 a1 37 3d 7d 88 8a 3d c4 9e 9e ba 68 bb 20 bd
       0.044831548 0.06764314 -0.0012101759 -0.039241225
0000b0 df 43 ab bd b0 92 7e 3c f7 1c 10 bd 67 39 82 3c
       -0.08362555 0.015537903 -0.035183873 0.015896512
0000c0 db 05 e9 bc 49 67 83 bc 4c a5 c8 ba d8 72 15 bc
       -0.028445175 -0.016040461 -0.0015308051 -0.009121619
0000d0 44 f4 af 3d da 4d f6 3d 1d b4 87 3b d1 58 5c bd
       0.08591512 0.12026568 0.004141344 -0.05379564
0000e0 e9 c0 8b bd 37 43 a1 bc 82 fb d8 bb 17 2b bd 3d
       -0.06823904 -0.01968537 -0.006621779 0.09236734
0000f0 f7 05 09 3a 61 29 c1 3c ea ed a7 3d 2c 0a 8f 3d
       0.0005227024 0.023579301 0.081996754 0.06984362
000100 8b 21 49 3d 1c 68 00 3d f5 66 b5 3d 04 0c 85 bd
       0.049104255 0.031349286 0.08857528 -0.064964324
000110 25 72 f1 3c 2d 20 36 3d 91 2a 53 bd 74 2e 87 3d
       0.029473374 0.04446428 -0.051554266 0.06600657
000120 4f 0b 42 3d ca 93 1d 3e 6d 4c bf 3d 22 a0 55 bd
       0.047374066 0.15388408 0.09340749 -0.052154668
000130 f7 88 f2 3d 6f ca b4 3d 26 cf eb bc 4b 9c b2 bc
       0.1184253 0.08827674 -0.0287853 -0.021803042
000140 a8 ec 59 3d c1 c2 74 bd df 17 95 bc b1 70 27 3e
       0.05320421 -0.059756044 -0.01819986 0.16351582
000150 13 5a 1c 3c 1e aa 23 3e c5 05 42 3b a2 b7 92 3d
       0.00954296 0.15982863 0.002960549 0.071639314
000160 db 74 c2 bd 6b 20 9f 3d 02 fb 83 3d 7f c3 0c 3d
       -0.09494945 0.07769855 0.0644436 0.034366127
000170 4e 7e cb 3c d8 23 0f bd da 8c 7c 3d dd c3 af bd
       0.0248405 -0.034946293 0.061657764 -0.0858228
000180 1d ab 23 3e eb 54 6d bd 04 be c5 3d 2a a9 0a be
       0.15983243 -0.057942312 0.09655383 -0.13541093
000190 0f 04 af 3d c2 38 01 3d f3 6b 86 3c 0c 99 4c bd
       0.08545696 0.03154827 0.016408896 -0.049950644
0001a0 42 e6 24 bd 66 df 42 bd 68 d0 4b 3e 16 cb 2e bd
       -0.040258653 -0.04757633 0.1990372 -0.042674147
0001b0 a7 f3 15 bd 69 20 cf 3d cc c7 cd bc 80 c7 8d bc
       -0.036609318 0.101136036 -0.025119685 -0.017307043
0001c0 79 65 15 bd a7 81 1e bd 86 06 c0 3d f6 6c 04 3e
       -0.036473725 -0.038697865 0.09376244 0.1293219
0001d0 00 e1 a0 3d ca b1 a5 bc 02 20 72 bd af 32 22 bd
       0.07855415 -0.020226378 -0.059112556 -0.039599117

fc2.weight f4 [84, 120]
000000 60 c5 33 3d 53 bc a9 3c 0a aa a3 bd 59 c3 a1 bd
       0.043889403 0.020719683 -0.07991417 -0.07898588
000010 af e0 75 3d d0 77 b9 bd da d3 bf 3c 19 95 39 3d
       0.060028728 -0.090560555 0.023416448 0.045308206
000020 ce cc 72 bd 0e d3 99 3d aa a7 7c 3d 42 bb 17 3d
       -0.05927735 0.075109586 0.061683334 0.037043817
000030 db 14 b3 bd 50 f2 93 bd 89 4d 9c bd 35 72 b0 bd
       -0.08744212 -0.07223952 -0.07631976 -0.08615533
000040 de 25 af bd bd 2e 67 bd 1e 1a 3d 3d f5 1b c1 bc
       -0.085521445 -0.056441057 0.046167485 -0.023572901
000050 16 4e 77 3d 42 ca 56 3d 4f fa 4c bd 25 b2 e3 3c
       0.060377203 0.05243898 -0.0500434 0.027794907
000060 9a ff a1 3c 57 f3 87 bc 5d fa 6a bc 7f 17 8c bd
       0.0197752 -0.016595526 -0.014341918 -0.06840419
000070 40 ec b9 3b f7 09 bd 3c b5 13 28 3d 44 3b 95 bc
       0.005673915 0.02307604 0.04103442 -0.018216737
000080 d0 ce b3 bb fb 10 83 bd ec a4 3f bd e1 10 b1 3d
       -0.0054873005 -0.06399723 -0.04678814 0.086457975
000090 5e 23 b6 3d 62 5f b8 bb 86 2b 9c 3d f4 dc 1a 3d
       0.088934645 -0.005626605 0.07625489 0.037808374
0000a0 af 6a 6e bd ca e7 dc 3c 1f 5c 3d bd 48 e7 f0 bc
       -0.05820721 0.026965994 -0.04623043 -0.029407158
0000b0 e1 5f 27 bd 88 c5 4e 3b 41 f1 a1 3d 03 af 96 bb
       -0.04086292 0.0031550843 0.07907344 -0.0045984997
0000c0 c6 84 b4 bd ec eb 8f bd 05 77 63 3d 97 bf 8d 3c
       -0.08814387 -0.070274204 0.055533428 0.017303271
0000d0 b6 57 91 bd df 2d 6d bc 89 dd fc bc 63 47 ae bd
       -0.07096808 -0.014476269 -0.030867355 -0.0850971
0000e0 97 0c aa bd bc 62 1d 3d e9 db 6c ba 18 a0 89 3c
       -0.083031826 0.03842424 -0.0009035455 0.016799971
0000f0 3b b7 97 bd 24 f9 88 3d 61 09 b7 bc bf b3 ba bd
       -0.07407995 0.06688145 -0.02234334 -0.09116315
000100 fc 7b 59 3c 82 c9 90 bd e2 8c cf 3c 35 1a bc 3c
       0.013274189 -0.070696846 0.025335733 0.022961715
000110 e1 76 e0 bc 71 df 93 3c 04 9e 40 3c 41 5d 9d 3d
       -0.027400436 0.018050881 0.011756424 0.076838024
000120 62 8f b7 bc 8c 97 a8 bd 29 ed 11 3d d2 64 a8 3d
       -0.022407237 -0.0823203 0.035626564 0.08222355
000130 60 a0 8a bc f2 0d 20 bd 3f 59 24 bb 1e ea 9f 3d
       -0.016922176 -0.0390758 -0.002507761 0.07808326
000140 6f 4c 8b bc ed 15 84 3d d9 e9 78 3d 7f 31 6c bd
       -0.01700422 0.064494945 0.06076989 -0.05766439
000150 01 0f a5 3d 4e dd 5a bd 93 ab 9a bb 1a 88 40 3d
       0.080595024 -0.05343371 -0.0047201603 0.047004797
000160 5e 16 08 3b ca b0 44 3d 1c e6 a8 bd 53 58 9f bc
       0.0020765285 0.04802016 -0.08247015 -0.019451296
000170 30 1d 88 3c 65 72 75 3d 13 0a 95 bb fe fc 2b bd
       0.01661548 0.05992355 -0.00454832 -0.04198932
000180 46 d5 4e 3c 60 b5 fa 3a f1 ac b4 bd 3a d9 9a bd
       0.012624091 0.001912754 -0.088220485 -0.07560964
000190 eb 57 d1 3c 1a e2 19 bd 62 33 a4 bd 88 6f 66 bd
       0.025554618 -0.037569143 -0.08017613 -0.05625871
0001a0 2a b0 28 bb 82 1a 22 3b be 22 b5 bd b9 87 b6 3c
       -0.0025739768 0.0024735038 -0.08844517 0.022281514
0001b0 ab 6d a7 3d c0 01 69 3d d0 f6 64 3d 95 ff 82 3d
       0.081752144 0.056886435 0.05589944 0.06396405
0001c0 9e 69 69 3d 29 f8 19 bd 24 e3 16 bc 48 4a 8e 3d
       0.05698549 -0.03759018 -0.009209428 0.06947762
0001d0 43 42 a8 bc 87 96 e1 bc d7 98 aa 3d fc 75 91 bd
       -0.020539409 -0.027537597 0.08329933 -0.07102582
0001e0 53 53 82 3d ce 91 96 bc 1d 53 88 3d 2a b5 9a bc
       0.06363549 -0.018380072 0.066564776 -0.018885214
0001f0 7b 70 d8 3d b1 c3 ad bd 6a a2 33 be 28 ac 6b bd
       0.10568329 -0.08484591 -0.17542425 -0.057537228
000200 62 14 72 bd 7e 0c d0 3d 4f 45 28 bd 0f d7 ed 3d
       -0.05910147 0.10158633 -0.041081723 0.11613285
000210 76 a6 63 3d 48 31 8a bd 5a ad c1 3d bc ba 9e bd
       0.05557867 -0.06747681 0.09456892 -0.077504605
000220 d6 3b fd 3c e0 23 de bb 95 5a 11 be 29 fb 9a 3c
       0.030912321 -0.006779179 -0.1419471 0.01891859
000230 a6 e7 c3 3d 0a 58 a7 ba 3b d3 97 3d ed ab d4 3c
       0.09565668 -0.0012767327 0.07413336 0.025960887
000240 16 5e a4 3c 8e b9 3f bd 2a 54 8c 3d ca 54 b0 3d
       0.020064395 -0.046807818 0.068519905 0.08609922
000250 01 4d 5e 3c f7 87 f3 3c 08 cb b9 3c 92 91 8b 3d
       0.013568164 0.029727919 0.02267982 0.06814875
000260 b2 a3 92 bc 00 2d 9f bc f8 4b 48 3d 6d 92 2c bd
       -0.017900322 -0.019430637 0.048900574 -0.04213183
000270 0b bb 51 3c 07 6a c1 bb 88 1b bf 3d 9d 26 62 bd
       0.012800942 -0.005902532 0.09331423 -0.055212606
000280 e5 e0 96 bd 06 07 fc bd c0 7c 3e 3d 8b 02 34 be
       -0.07367114 -0.12306027 0.04650569 -0.17579095
000290 22 70 a3 bd aa dc 5d bc 84 fa c3 3d 15 41 8e 3d
       -0.07980372 -0.01354138 0.095692664 0.06946007
0002a0 9a 9e 08 3d ae cf 0f 3d 27 4a 28 bd 98 8a 1c 3c
       0.03335438 0.03511017 -0.041086342 0.009554528
0002b0 b0 f5 7a bc 7b 87 0a 3e d0 9e 0f be 06 6c 96 3d
       -0.0153173655 0.13528244 -0.14025426 0.073448226
0002c0 4a 1d aa 3d 84 95 e8 bc 82 6e e2 bc 16 10 85 3c
       0.08306368 -0.028391607 -0.027640585 0.016243022
0002d0 74 41 7c ba 5d a4 61 3d 25 82 16 3e 31 a9 82 3d
       -0.00096227904 0.05508839 0.14698084 0.06379927
0002e0 dc e3 8b 3d 17 ef e1 3d 13 59 12 3d 22 0f 2f be
       0.0683057 0.11031931 0.03572948 -0.17095616
0002f0 24 9e a9 bc 98 d7 92 3d 2f 0a aa 3c 74 f0 3a 3d
       -0.02070529 0.071700275 0.020756809 0.04563947
000300 fe 9b 1a 3d 3d b2 4a 3d fe 1d a2 bd 2c 7c 4a bd
       0.037746422 0.049486388 -0.07915877 -0.049434826
000310 b6 31 c7 3c 75 3b 02 bd 73 5e 0f 3d ce 42 84 bd
       0.024315696 -0.031794984 0.035002183 -0.064580545
000320 4a ec d3 3d e0 a6 86 bd 22 43 67 3c a5 dc 3f 3d
       0.10347803 -0.06574798 0.014115127 0.046841282
000330 72 f9 4d 3d fa 8b 50 bd 3b cc e9 bc 31 08 31 bd
       0.050286718 -0.050914742 -0.028539767 -0.043220703
000340 76 d4 cc 3d 0d 79 d7 3c 42 7e 55 3d 78 0d 8f bd
       0.10001461 0.026302839 0.052122362 -0.06984991
000350 5f 5e b3 3c bb 72 fa bd 81 ce 87 3d 58 f3 ff bc
       0.021895586 -0.12228914 0.06631184 -0.031243965
000360 27 d7 21 bc 97 1c cb bd b8 49 a3 3d 21 b7 a1 bd
       -0.0098779565 -0.099175625 0.07973045 -0.07896257
000370 1c a4 0e 3e 6d d2 e5 3d a5 1e c9 bb 23 f0 c9 3b
       0.1392979 0.11221776 -0.0061376863 0.0061626597
000380 98 89 11 bd 9b 5e 0b 3d 52 e5 b2 3d 40 fe d2 3c
       -0.03553161 0.03402577 0.08735146 0.025756001
000390 97 1c 90 bd 28 c8 9b bc 39 0b 39 3d e5 3d 54 bd
       -0.07036703 -0.01901634 0.04517672 -0.05181684
0003a0 f5 6b e4 bc 38 ae ea 3b 58 2b 18 3c 0a ab d8 bc
       -0.02788351 0.007161882 0.009287678 -0.026448745
0003b0 51 92 a6 3d 51 e6 5e 3d 93 f6 3d bd 69 b0 13 3d
       0.081333764 0.054418866 -0.04637773 0.03605691
0003c0 fc 2d bd bc c0 87 f6 bc d3 bc 63 3d 88 49 30 3d
       -0.023093216 -0.030094028 0.0556 0.043038875
0003d0 81 77 ab 3d 43 65 9e 3c 66 b5 f9 bb 2e d6 02 3c
       0.08372403 0.019335395 -0.0076205013 0.007985635
0003e0 0b b0 be 3d 08 fe b2 3d c4 f3 82 bc 20 bd ab bd
       0.09310921 0.08739859 -0.015985377 -0.08385682
0003f0 b8 b4 a4 bd 33 84 9f bd 92 90 52 bd 25 82 c1 bd
       -0.08042282 -0.07788887 -0.051407404 -0.09448651

fc2.bias f4 [84]
000000 c6 9e c8 bd f1 f0 95 3e 6e 99 48 3e 15 b5 46 bd
       -0.09795909 0.29285386 0.19589779 -0.048512537
000010 4c 3f 9c 3c 0f 03 90 3d 38 38 25 3c ee fd 90 3d
       0.019073151 0.070318334 0.010084204 0.07079683
000020 18 d8 e5 3c 8e e8 47 3e 97 55 e1 bc 03 4c 2e be
       0.028057143 0.19522306 -0.027506633 -0.17021184
000030 12 29 9f 3d 43 fa eb 3d 17 e2 08 bc 84 66 96 bd
       0.077715054 0.11522343 -0.008354685 -0.07343772
000040 40 10 19 3e 70 a8 ab bd 8c be 60 3e a9 80 c5 bd
       0.14947605 -0.08381736 0.21947688 -0.096436806
000050 8f cf 87 3e 6a 80 df 3d ec 73 dd bd b2 52 c9 3e
       0.26525542 0.10913165 -0.10813126 0.39320904
000060 66 00 aa bd d9 6b a4 3d e2 33 8c bd e6 03 c5 bd
       -0.08300857 0.08028383 -0.06845833 -0.09619884
000070 2b 0b 7d 3e 22 a1 6e 3e 98 4d 22 bc e3 1a 4b 3e
       0.24711291 0.23303655 -0.009906195 0.19834475
000080 fc 54 21 3d a3 4c 26 bd 3e c6 73 3d a3 b5 ad bd
       0.039387688 -0.04060043 0.05951523 -0.0848191
000090 de be 88 bd b3 37 08 bd e8 cb cc bb 41 2f 6e bd
       -0.0667703 -0.033256244 -0.0062498935 -0.058150534
0000a0 10 be 74 3d f5 b4 0c 3e b9 6e 9f bc 62 a2 a3 bd
       0.05975157 0.13740905 -0.019461976 -0.079899564
0000b0 1f 6d 55 bd ba 26 3d 3e 54 05 04 3e f6 65 0c 3d
       -0.05210602 0.18471804 0.12892658 0.034276925
0000c0 47 df 25 bd 1b d0 02 bd bb d7 f8 3c 72 2c 91 bd
       -0.040496137 -0.031936746 0.030376306 -0.070885554
0000d0 2d b0 df 3d 3e fa 1c 3d 30 b1 62 3e 23 de d4 ba
       0.10922275 0.038324587 0.22137904 -0.0016240518
0000e0 96 5b 87 bd f0 c2 d3 bc b6 46 02 bd 3c d9 06 bd
       -0.066092655 -0.02584979 -0.031805716 -0.032922015
0000f0 39 ba 19 3c 23 e8 77 3d 41 a8 dc 3a 83 14 27 3e
       0.009382778 0.060524117 0.0016834812 0.16316418
000100 c8 8d 3a 3c d5 ed 81 bd 08 21 8f 3e 92 ff aa 3e
       0.011386342 -0.06344191 0.27954888 0.3339811
000110 c3 50 4f 3d c7 b4 78 bd 03 71 8e bc c3 73 47 3d
       0.05061413 -0.060719278 -0.017387873 0.048694383
000120 7c 25 b5 bd 5f cd c4 3e 46 48 bb 3c 11 e1 4c 3d
       -0.0884504 0.38437936 0.022861611 0.050019328
000130 81 82 51 3d 7a b7 9d 3d 05 d4 3c be 8c af a6 3e
       0.05114985 0.07701011 -0.18440254 0.32555807
000140 ac b2 61 3e 74 e5 f3 bd 73 d1 15 be 42 a9 a5 3c
       0.22040814 -0.11908999 -0.1463068 0.02022231

fc3.weight f4 [10, 84]
000000 82 30 8d 3d 4c 66 6f 3e 1d fc 2e 3e fc 78 79 3d
       0.06894018 0.23378867 0.17088361 0.060906395
000010 66 6e 6f 3e 91 76 76 3d 6e 5e de 3c 61 c9 c2 3d
       0.23381957 0.060171667 0.027144637 0.09511066
000020 67 1b 86 bd 34 81 ae 3d 1e e6 14 bd f4 00 2c 3c
       -0.06548195 0.08520737 -0.03635227 0.010498274
000030 77 23 a5 3e ca 94 94 bd 48 b7 df 3c 98 75 07 3e
       0.3225362 -0.07254942 0.027309075 0.13228452
000040 bc a7 f3 bd 8b cc 59 3d 64 f7 0e be 5e 21 01 be
       -0.11897227 0.053173583 -0.1396156 -0.12610385
000050 6f c7 30 be 7e ba e0 3d 60 c3 95 bb 49 90 92 be
       -0.17263578 0.109730706 -0.0045704097 -0.28625706
000060 68 33 04 3e 85 d3 b3 bd d0 51 8a 3d 7a 19 63 3d
       0.12910235 -0.087805785 0.06753886 0.05544422
000070 5a b8 0a be 6d 23 f8 bd 18 ed 08 3c 76 17 a5 3e
       -0.13546887 -0.12116132 0.008357309 0.32244462
000080 a1 ce 7c bd 1d 34 7d 3e 95 59 8a 3d bf 71 3f be
       -0.061720494 0.24726911 0.06755368 -0.18695734
000090 8c 0a a6 3a c1 f5 d3 bd 70 68 6f 3e 75 45 c0 bd
       0.0012667938 -0.10349608 0.23379683 -0.09388248
0000a0 95 d5 4d 3e e8 e1 50 3b 59 d7 0d 3b 7c 2f f0 3d
       0.20101006 0.0031872932 0.002164325 0.11727807
0000b0 4f 68 23 be c1 c4 ab 3d e3 ea dd bd 3e b2 83 3e
       -0.1595776 0.08387137 -0.10835817 0.25721925
0000c0 19 5d 09 3e 01 b4 68 bc 19 70 9a 3d ce c6 9c 3d
       0.1341442 -0.0142030725 0.07540912 0.076551065
0000d0 cc 1f a0 bd 10 49 46 be 71 e3 26 bd e8 5b 61 bc
       -0.07818565 -0.19363809 -0.04074425 -0.013754822
0000e0 1e 11 4d 3d 66 a6 e2 bb 6b 1a 81 bc 86 36 14 3e
       0.050065152 -0.006916809 -0.015759667 0.14473924
0000f0 03 29 e9 3a 26 5a bb 3d 65 2d 42 bd 9b 8c 8e bb
       0.0017788712 0.09148054 -0.047406573 -0.0043502576
000100 e2 5d ff 3c 60 2d 18 bc 4e d7 b0 bc 9f 20 c6 bd
       0.031172697 -0.009288162 -0.02158704 -0.09674191
000110 09 3f fe 3d bf d8 79 3e d0 c1 e1 3d 58 3a 0a bd
       0.12414367 0.24399088 0.11023295 -0.033747047
000120 fd a8 39 3d 29 bd 34 be 82 8f 8e be 64 98 8f bd
       0.045327175 -0.17650284 -0.27843863 -0.07011488
000130 ac 8c c5 bc 5f b6 9a 3e 4e 24 3f 3e 58 58 68 be
       -0.02411493 0.30217263 0.18666193 -0.2268995
000140 ef 98 c5 3d 46 68 54 3e a7 1b 26 3e e1 76 2d bc
       0.096483104 0.20742902 0.16221486 -0.010587425
000150 d0 af b4 bd 7e 2a 7f 3d 50 07 34 3d 5a bc 3e 3e
       -0.08822596 0.062296383 0.043952286 0.18626538
000160 2d 60 0b be e2 5e e6 3c 7f 85 2d bb 51 ca 0a 3d
       -0.13610907 0.028121416 -0.0026477275 0.03388435
000170 cd 8d 7d 3e 90 2b da bd 99 c8 d2 3d e6 86 78 3e
       0.24761124 -0.1065284 0.10292167 0.2427021
000180 9a 4d 4b be b7 83 01 3e 9d a6 94 bd 35 2a a3 3d
       -0.19853821 0.12647901 -0.072583415 0.07967035
000190 44 c9 4e be 53 d4 c5 3d 41 24 9a be ab 62 15 3e
       -0.20193964 0.09659638 -0.30105785 0.1458842
0001a0 27 2c 41 bc 7f db 36 be 8b 16 3a 3e 99 0c 71 be
       -0.011790312 -0.17857169 0.18172662 -0.23539962
0001b0 d0 05 ab bd 16 90 a6 bd 75 59 2f 3d 5c 18 d2 bd
       -0.08350718 -0.08132951 0.042809922 -0.102585524
0001c0 71 06 03 be 28 c6 25 bd d8 38 da bd 53 af 1c bd
       -0.12795426 -0.04047218 -0.10655373 -0.03825314
0001d0 07 ec b7 3c 65 29 a9 3c 58 fe e7 bd b9 78 75 bd
       0.022451414 0.020649621 -0.11327809 -0.059929583
0001e0 19 60 82 3c 3c d1 8e bd f9 d7 08 bd 4d 7d 13 3d
       0.015914964 -0.06973502 -0.033409093 0.036008168
0001f0 4a 0c 4b 3e 7f 2f ef bd af 85 52 bd a3 52 30 3e
       0.19828907 -0.11678981 -0.05139702 0.17219023
000200 e5 cc d1 3d 47 12 e9 bb f6 44 4e 3d a3 f6 f1 3d
       0.10244159 -0.0071127745 0.050358735 0.1181462
000210 c4 5e 3d 3e 39 80 23 3d 65 99 23 3e 98 fa b3 3d
       0.18493181 0.039917205 0.15976484 0.08788031
000220 3c 8f e0 bd 20 f3 65 3e a6 fe 8c be 8b de e4 bd
       -0.1096482 0.22456026 -0.2753803 -0.11175259
000230 ee bc 43 bc 4e 3a a3 3d ef 98 3c 3d 7b bf 38 bd
       -0.0119469 0.07970105 0.046044286 -0.045104485
000240 8e 86 62 3e fb bc 04 bd 54 4f 85 3e 53 ae 97 bd
       0.22121641 -0.03240679 0.26037085 -0.074062966
000250 28 df 85 bc bf 5c 58 bd 53 ac b1 be ee f2 92 be
       -0.01634176 -0.052822825 -0.34701785 -0.28700966
000260 d7 c9 70 3e c2 43 5c bd 55 f1 2c 3d 51 22 37 3e
       0.23514496 -0.053775556 0.04222234 0.17884184
000270 3f 7c c4 bd c5 6d 2d be 12 fb f9 bc e6 44 fa bd
       -0.095940106 -0.16936405 -0.030515227 -0.122201726
000280 41 67 fa bd 53 d4 fb bd 96 89 ac bc 33 32 6f be
       -0.12226725 -0.12296357 -0.0210617 -0.23358993
000290 87 09 8e bd 97 bb 9d 3e ac ee 05 3e fb c1 fe 3d
       -0.06935411 0.30807182 0.13079327 0.124393426
0002a0 31 1d 86 3d f7 b2 f7 3c e2 05 56 3d 38 e6 96 bd
       0.065485366 0.030236704 0.052251704 -0.073681295
0002b0 f0 96 2d bb c1 d8 1f 3e 01 cf fd bd c9 f3 3f 3d
       -0.002648767 0.15610029 -0.123929985 0.04686335
0002c0 e1 6c 0e be de ce df bd e6 b7 e0 ba 4b b5 af 3d
       -0.13908722 -0.10928129 -0.001714465 0.08579501
0002d0 71 31 66 3e 4c ad 1b be 1c 66 a2 bc e9 48 96 bd
       0.22479798 -0.15202826 -0.01982408 -0.07338125
0002e0 39 ab d3 bd f6 d8 5a 3d 94 0f 04 3e d4 c6 27 3d
       -0.103353925 0.053429566 0.12896568 0.0409611
0002f0 55 cf 16 3e 9b d4 db bd 22 0d 2c be 48 7d 3b 3e
       0.14727528 -0.10733911 -0.16801885 0.1830951
000300 ee 82 b3 bd be a3 5d bb 24 8a 8a bd a2 20 30 3d
       -0.08765207 -0.0033819522 -0.067646295 0.04299987
000310 5e a9 e6 3d f5 0c d1 bc 0f d1 d0 3d 80 2e 95 bd
       0.11262773 -0.025518874 0.10196125 -0.0728426
000320 fa 3a 50 be ee 24 a4 bd 6b 99 69 3e 55 df 4a bd
       -0.20334998 -0.08014856 0.2281243 -0.049529392
000330 59 4b 87 bb 05 bc 95 3d ac b2 e9 3d d4 5f 60 ba
       -0.004128855 0.073112525 0.11411032 -0.00085592014
000340 4f 16 06 be e4 ac 04 bd 27 d7 b1 bd c8 fb 80 bd
       -0.13094448 -0.032391444 -0.08683615 -0.062980235
000350 bf 85 00 3d 77 73 24 3e b4 81 d0 3d 34 00 43 3d
       0.03137755 0.16059671 0.10180989 0.047607616
000360 0c 99 2f bd fa dc 3a 3c c5 2f 6e bd 08 fc 7e 3d
       -0.042870566 0.011405224 -0.058151025 0.062252074
000370 1d 23 e8 bd 0e 6b 0e be ec 16 1f 3e ea 6e bd 3d
       -0.11334822 -0.13908026 0.15536088 0.09249671
000380 bc 00 ac bd 07 60 e5 3d eb 01 07 bd c7 8a dd bd
       -0.083985776 0.111999564 -0.032960813 -0.10817485
000390 f7 ff 07 be b3 c4 9b bc 99 92 a1 3d 20 e1 83 3e
       -0.13281237 -0.019014692 0.078892894 0.25757694
0003a0 63 6b bd 3d 3c 51 09 3e 6a 99 98 3e c1 f0 91 bd
       0.09248998 0.13409895 0.29804546 -0.07125998
0003b0 9a d7 3b be 10 9f 1c bd eb 86 db 3d d4 19 9b 3c
       -0.18343964 -0.03823763 0.10719093 0.018933214
0003c0 fb d4 b4 3d 7e 42 ac 3e 52 43 a3 bd 09 e9 af 3d
       0.08829685 0.3364448 -0.07971825 0.0858937
0003d0 28 2c 17 3c a2 72 7b 3e be 93 87 3d ad 3e 33 3c
       0.009226836 0.24555448 0.066199765 0.010940236
0003e0 35 3d 24 bd 35 af e4 3c 65 05 0f be 3c 87 08 be
       -0.040097434 0.027915576 -0.13966902 -0.13332838
0003f0 a6 0d 9d 3d 4a 24 8c bd 9e 74 bf bc 67 d9 d0 bc
       0.07668619 -0.06842859 -0.023371037 -0.02549429

fc3.bias f4 [10]
000000 8e 74 19 be 73 a9 0b bf b0 1f 8d 3e 65 8b 7d 3e
       -0.14985868 -0.54555434 0.27563238 0.24760206
000010 dd 90 05 3f 4f 6e 3a be e4 f0 40 3e 3e 6a 84 be
       0.5217417 -0.18206142 0.18841892 -0.25862306
000020 a2 d2 86 3e 68 61 97 be
       0.26332575 -0.29566503
