cifar_net.pth (torch, 250887 bytes, 10 tensors)

conv1.weight f4 [6, 3, 5, 5]
-0.19127642 -0.04485046 -0.06724706 -0.010209179 -0.16664675 -0.06206342 0.04321638 -0.0168785
0.034937084 -0.02241182 -0.017420495 -0.011736501 0.04270008 -0.123874925 -0.03999484 0.030175222
0.076630995 -0.060305953 -0.03977372 -0.11977011 0.0034366676 -0.053622235 -0.12379823 -0.10550291
0.020312855 -0.10089468 -0.17837949 0.03580098 -0.15737931 -0.2106055 0.0062430673 0.10025437
0.14827979 0.06793238 -0.040851686 0.046214532 -0.0010234729 -0.120457806 0.07924154 -0.04728657
-0.10950908 -0.07465094 -0.11792771 -0.012474204 -0.12651883 -0.039616045 -0.12602958 -0.021402037
-0.103230976 -0.24037153 0.1979633 0.19796813 0.17597315 0.104101494 0.13668214 0.11265472
0.3547174 0.2293706 0.15584251 0.05618731 0.16495858 0.27208814 0.29027897 0.07423766
0.0061428812 0.31133395 0.1845757 0.19409226 0.08500562 0.14544582 0.23211555 0.086553216
0.07525669 0.0946728 0.07858969 0.00087377115 0.032559097 -0.12039228 -0.041346136 0.09561326
0.42164788 0.42464688 0.5954369 0.3469593 0.4338478 0.14517768 0.32404354 0.4217315
0.22013734 0.06722851 -0.18390448 -0.28687957 -0.45178312 -0.40896556 -0.3241532 -0.20493898
-0.15684725 -0.3448071 -0.32744867 -0.37615097 -0.19947036 -0.298228 -0.32602236 -0.3489743
-0.074364334 0.24525107 0.29869628 0.3171261 0.3266706 0.24861076 0.18024921 0.10194096
0.14503592 0.25724423 0.07346513 -0.32896942 -0.34669864 -0.35501075 -0.26945004 -0.14772312
-0.04603917 -0.11339421 -0.07485827 0.1436596 0.14694263 -0.3024972 -0.36183378 -0.28537083
-0.19679867 -0.23141003 -0.06662517 0.10332298 0.04749871 0.087533005 0.037964832 -0.0054170517
0.13952547 0.058192767 0.027002787 0.033117555 -0.16316906 -0.10531629 -0.1467682 -0.03792097
0.092217326 0.28965968 0.29351395 0.32103246 0.25207105 0.24462734 0.21845086 0.16244885
0.21632442 0.15506487 -0.022208126 0.013756836 0.21246034 0.12881356 0.103942685 0.1564779
-0.06871481 0.0628354 0.09558968 0.12403613 0.24280946 -0.046001717 -0.088530265 0.15772761
0.30149686 0.18313244 0.024404673 -0.21085273 -0.04106678 0.08486086 0.07749137 -0.24610512
-0.13729674 -0.04051605 -0.11024826 -0.07172882 -0.20937268 -0.33126476 -0.05599086 0.053977843
-0.012810572 -0.23951153 -0.3323815 -0.22503912 -0.037414674 0.06870668 -0.10744308 -0.29867518
-0.2737174 -0.021466857 0.010814616 -0.1316206 -0.33017978 -0.39389637 -0.21718752 0.0220857
-0.13342227 0.037456222 0.017689088 0.2160781 0.18967171 -0.19724284 -0.16087638 0.09744381
0.3260027 0.1485724 -0.12862647 -0.19404617 0.13142611 0.35399145 0.16217034 -0.1553903
-0.30035415 0.07037235 0.13448274 0.24514145 0.055560153 -0.11546302 -0.114943214 0.060569905
0.2570827 0.026834406 0.13420609 0.008284745 -0.2842694 0.18732226 -0.115500286 0.16627188
0.148213 -0.2893295 0.00985416 -0.17063113 0.31759733 0.16105698 -0.38113317 -0.071167536
-0.2943534 0.23803405 0.38822463 -0.4325436 -0.15456454 -0.026485631 0.013093904 0.27171615
-0.13441359 -0.24134512 0.029864246 0.2642365 -0.014675628 -0.17394936 0.09776592 -0.049321853
00000000: f7dd 43be 1eb5 37bd d4b8 89bd 6644 27bc
00000010: 72a5 2abe 3636 7ebd a903 313d c844 8abc
00000020: 301a 0f3d fe98 b7bc 6db5 8ebc 744a 40bc
00000030: 47e6 2e3d 23b2 fdbd a1d1 23bd 0732 f73c
00000040: b6f0 9c3d 6003 77bd c5e9 22bd 084a f5bd
00000050: b739 613b fda2 5bbd ed89 fdbd e911 d8bd
00000060: 2567 a63c dfa1 cebd 1da9 36be 0ca4 123d
00000070: 0b28 21be f8a8 57be a592 cc3b 2a52 cd3d
00000080: a8d6 173e 2220 8b3d 1954 27bd 734b 3d3d
00000090: 0d26 86ba 95b2 f6bd 6349 a23d 90af 41bd
000000a0: 4c46 e0bd 98e2 98bd 1584 f1bd 9b60 4cbc
000000b0: 278e 01be 6f44 22bd e60d 01be 5353 afbc
000000c0: c36a d3bd f423 76be e4b6 4a3e 28b8 4a3e
000000d0: 4e32 343e 2a33 d53d 67f6 0b3e 85b7 e63d
000000e0: 859d b53e 20e0 6a3e 2e95 1f3e aa24 663d
000000f0: e7ea 283e 234f 8b3e 729f 943e ea09 983d
00000100: 394a c93b 2a67 9f3e 6a01 3d3e 1fc0 463e
00000110: 6d17 ae3d c0ef 143e b3af 6d3e d042 b13d
00000120: 2e20 9a3d d0e3 c13d a2f3 a03d ca0d 653a
00000130: b05c 053d 3a90 f6bd 915a 29bd e3d0 c33d
00000140: 3be2 d73e 516b d93e 8d6e 183f a6a4 b13e
00000150: 4d21 de3e 75a9 143e 09e9 a53e 31ed d73e
00000160: af6b 613e 1aaf 893d 7551 3cbe e1e1 92be
00000170: 1e50 e7be ef63 d1be 69f7 a5be 86db 51be
00000180: 919c 20be 8e8a b0be 5aa7 a7be dc96 c0be
00000190: f541 4cbe 57b1 98be 67ec a6be c2ac b2be
000001a0: 544c 98bd 1923 7b3e b8ee 983e 5a5e a23e
000001b0: 5e41 a73e d293 7e3e 4093 383e 6cc6 d03d
000001c0: 4c84 143e 84b5 833e e374 963d ae6e a8be
000001d0: 7c82 b1be f8c3 b5be 5bf5 89be bb44 17be
000001e0: 9293 3cbd 393b e8bd 4b4f 99bd 811b 133e
000001f0: 2178 163e eae0 9abe 4742 b9be 201c 92be
00000200: 9785 49be c0f6 6cbe c772 88bd 009b d33d
00000210: 028e 423d 8144 b33d 0381 1b3d 8681 b1bb
00000220: c4df 0e3e 8a5b 6e3d f334 dd3c 46a6 073d
00000230: ca15 27be 11b0 d7bd 674a 16be 0553 1bbd
00000240: 70dc bc3d 464e 943e 7647 963e 5e5e a43e
00000250: 750f 813e 977f 7a3e 95b1 5f3e fe58 263e
00000260: 2684 5d3e 53c9 1e3e d1ed b5bc 5a64 613c
00000270: 348f 593e b4e7 033e e7df d43d be3b 203e
00000280: 5aba 8cbd d9af 803d 86c4 c33d a806 fe3d
00000290: 0ba3 783e 4c6c 3cbd 5b4f b5bd 5983 213e
000002a0: cc5d 9a3e 1287 3b3e 4fec c73c c7e9 57be
000002b0: a435 28bd 88cb ad3d ccb3 9e3d fb02 7cbe
000002c0: 8497 0cbe 28f4 25bd d7c9 e1bd 8fe6 92bd
000002d0: cb65 56be 899b a9be ac56 65bd df17 5d3d
000002e0: 6fe3 51bc 8342 75be e82d aabe a870 66be
000002f0: 2140 19bd 16b6 8c3d 1e0b dcbd f4eb 98be
00000300: b024 8cbe 43db afbc ca2f 313c 8dc7 06be
00000310: 530d a9be c9ac c9be 6866 5ebe 12ed b43c
00000320: d99f 08be b26b 193d b5e8 903c 9443 5d3e
00000330: 4d39 423e 07fa 49be c7bc 24be 9f90 c73d
00000340: d3e9 a63e 5d23 183e a8b6 03be 0ab4 46be
00000350: 9194 063e 5e3e b53e fb0f 263e a31e 1fbe
00000360: 05c8 99be 611f 903d d8b5 093e 5c06 7b3e
00000370: 0b93 633d e077 ecbd 5967 ebbd 2618 783d
00000380: 58a0 833e d4d3 db3c 526d 093e bdbc 073c
00000390: c28b 91be 68d1 3f3e 6a8b ecbd 2d43 2a3e
000003a0: 26c5 173e ff22 94be 5873 213c edb9 2ebe
000003b0: 1e9c a23e 1fec 243e e323 c3be 49c0 91bd
000003c0: 7db5 96be 33bf 733e 61c5 c63e 5b76 ddbe
000003d0: 2b46 1ebe 65f8 d8bc d087 563c 611e 8b3e
000003e0: b7a3 09be 2d23 77be dda5 f43c 024a 873e
000003f0: 0c72 70bc c81f 32be 8039 c83d b605 4abd

conv1.bias f4 [6]
0.3593236 -0.47609842 -0.24088478 -0.119706534 -0.3236924 0.02426157
00000000: 43f9 b73e 2cc3 f3be 80aa 76be b328 f5bd
00000010: 03bb a5be 33c0 c63c

conv2.weight f4 [16, 6, 5, 5]
0.05194886 0.030653203 0.073545635 0.026083833 0.06864531 -0.0432293 0.030562948 -0.043400683
0.04726055 0.11422099 -0.10034992 0.013504265 0.0068661706 0.056534246 -0.070992045 -0.026965242
0.0035987864 -0.03314268 0.01714728 -0.14909425 -0.041806005 -0.096315764 -0.21756394 -0.12940282
-0.15945783 0.10902709 0.033659633 0.07674693 0.0055379304 0.12275918 0.11113823 0.060083725
0.092565484 -0.014508822 0.08831957 0.20824228 0.06045499 0.072045445 0.11515789 0.15470535
0.1826452 0.14291906 0.28344327 0.21832378 0.10257371 0.14678232 0.2715155 0.2335864
0.246076 0.07598911 -0.10377982 0.021861177 -0.040327955 -0.1675666 -0.041503116 -0.013056333
0.027956346 -0.12573962 -0.0835607 0.034879483 -0.0353487 -0.054480392 -0.16061229 -0.1838285
0.032182787 0.04001052 0.012404767 0.13253304 0.09303658 0.1276746 -0.034525905 -0.042452414
-0.03306534 0.005991101 -0.04069424 0.101595506 0.12368147 0.041292362 0.057302505 0.15017374
0.07195769 0.01232435 -0.0018668429 -0.013267889 0.050145894 -0.047177672 -0.10350692 -0.06865623
0.08451179 0.15984069 -0.039864793 -0.086317144 -0.12684225 -0.070938595 -0.08920469 -0.11244309
-0.17554733 -0.18716823 -0.21477492 -0.16594177 -0.1834597 -0.17218086 -0.14848273 -0.23265873
-0.13948831 -0.14294833 -0.13039814 -0.157788 -0.06316093 -0.031412706 0.028994408 -0.10609393
-0.07452965 -0.10466534 -0.00953245 0.046495926 0.108230256 0.1238875 0.17661625 0.24154957
0.05306957 0.044796742 0.06338007 0.1266674 0.18509038 -0.09233306 -0.015649658 -0.05664608
-0.05715237 -0.16099651 -0.0747931 0.011157404 -0.043192673 0.007474596 0.05129426 0.09528652
0.10778669 0.118946895 0.032238975 -0.0183548 0.113063864 0.12228697 0.25375304 0.20378593
0.051429022 -0.009185573 -0.09392949 -0.07116001 -0.11705382 -0.10027602 0.41069725 0.39461264
0.34261695 0.33874333 0.20205909 0.032053623 0.04050342 0.041971955 0.033070035 0.093434416
-0.12526995 -0.006779583 -0.070474744 -0.060193308 -0.03934836 -0.06237377 -0.08231916 -0.023356233
-0.06287895 -0.15473543 -0.23448803 -0.1525289 -0.04245941 -0.17668177 -0.144261 0.092366375
0.061568405 0.017281698 -0.07202139 0.08680384 -0.017676758 -0.132092 -0.12763499 -0.03894186
0.029959569 0.07814128 -0.040971626 -0.06398191 0.043192074 0.0024599845 0.018956771 0.04151648
-0.09432108 -0.09688288 -0.052900277 0.0723431 0.014550993 0.0012417644 -0.117891505 -0.059726316
0.10363433 0.12947482 0.08415972 0.12686846 0.12522644 -0.02793824 0.03246038 -0.10053843
0.12509283 -0.0070561366 0.0047674277 0.053951956 0.04923861 0.068560325 -0.05258974 0.09962494
-0.09169029 -0.008651013 0.08513422 -0.041138534 0.12069639 -0.1359454 0.045997992 0.14551893
-0.14988211 -0.02444751 0.034737505 0.09535902 -0.13101842 -0.0663263 -0.10379144 0.019988375
0.030939639 -0.094546914 -0.016222985 -0.20071033 0.04282196 0.09417336 -0.22919717 0.18740927
-0.16984595 0.04008051 0.060937963 -0.23421128 0.22961572 -0.115233324 -0.021513496 0.124741554
-0.14463446 0.27509362 -0.06472568 -0.17875192 -0.033684947 -0.0005814003 0.03418064 -0.046922497
00000000: 54c8 543d 6d1c fb3c 189f 963d c3ad d53c
00000010: ea95 8c3d 3511 31bd 265f fa3c eac4 31bd
00000020: 4794 413d b2ec e93d 4284 cdbd fe40 5d3c
00000030: 9dfd e03b 7490 673d 4764 91bd 36e6 dcbc
00000040: 9ed9 6b3b 9ec0 07bd 7478 8c3c 2aac 18be
00000050: c63c 2bbd 3341 c5bd 15c9 5ebe 2c82 04be
00000060: ea48 23be 9849 df3d afde 093d 7f2d 9d3d
00000070: 8777 b53b 2a69 fb3d 719c e33d 5a1a 763d
00000080: f992 bd3d 69b6 6dbc e4e0 b43d 773d 553e
00000090: a79f 773d 908c 933d e6d7 eb3d 146b 1e3e
000000a0: 5807 3b3e 6059 123e 7a1f 913e 4590 5f3e
000000b0: 2a12 d23d 1b4e 163e 1404 8b3e 4631 6f3e
000000c0: 59fb 7b3e 2ea0 9b3d 848a d4bd 3616 b33c
000000d0: ed2e 25bd 9496 2bbe 2cff 29bd 3bea 55bc
000000e0: b504 e53c e3c1 00be df21 abbd cadd 0e3d
000000f0: ccc9 10bd d526 5fbd 8c77 24be 8a3d 3cbe
00000100: 19d2 033d 12e2 233d 5d3d 4b3c beb6 073e
00000110: f689 be3d 21bd 023e 096b 0dbd 95e2 2dbd
00000120: 866f 07bd ff50 c43b 01af 26bd 4e11 d03d
00000130: b64c fd3d 2e22 293d 08b6 6a3d 25c7 193e
00000140: 8e5e 933d 12ec 493c dab0 f4ba 8f61 59bc
00000150: c865 4d3d 603d 41bd 70fb d3bd a39b 8cbd
00000160: 8414 ad3d 47ad 233e 4449 23bd 0bc7 b0bd
00000170: efe2 01be 4148 91bd f3b0 b6bd 9048 e6bd
00000180: aec2 33be 07a9 3fbe f5ed 5bbe a4ec 29be
00000190: dcdc 3bbe 2e50 30be db0b 18be 173e 6ebe
000001a0: 06d6 0ebe 0c61 12be 1787 05be 2d93 21be
000001b0: 855a 81bd 9caa 00bd ae85 ed3c c647 d9bd
000001c0: 00a3 98bd c85a d6bd fe2d 1cbc 8372 3e3d
000001d0: d3a7 dd3d bbb8 fd3d e4da 343e c558 773e
000001e0: 7a5f 593d ca7c 373d 69cd 813d 19b5 013e
000001f0: 5588 3d3e 1e19 bdbd b633 80bc b805 68bd
00000200: 9b18 6abd 45dc 24be 202d 99bd 8bcd 363c
00000210: cdea 30bd 75ed f43b ee19 523d 9425 c33d
00000220: 45bf dc3d 6e9a f33d 040d 043d ce5c 96bc
00000230: 078e e73d 9771 fa3d ebeb 813e 42ad 503e
00000240: 3da7 523d 167f 16bc 1b5e c0bd 57bc 91bd
00000250: eab9 efbd 845d cdbd e946 d23e ab0a ca3e
00000260: 7d6b af3e c46f ad3e 94e8 4e3e a94a 033d
00000270: eae6 253d c9ea 2b3d 7274 073d 8b5a bf3d
00000280: c446 00be 4427 debb 1055 90bd 428d 76bd
00000290: bf2b 21bd a37b 7fbd f396 a8bd 9255 bfbc
000002a0: aec6 80bd f772 1ebe a11d 70be 8930 1cbe
000002b0: ebe9 2dbd 11ec 34be 28b9 13be 952a bd3d
000002c0: 272f 7c3d 5992 8d3c f37f 93bd 36c6 b13d
000002d0: d9ce 90bc 2043 07be bfb2 02be 8081 1fbd
000002e0: c56d f53c 8908 a03d ddd1 27bd f308 83bd
000002f0: 2cea 303d b137 213b 3b4b 9b3c 2f0d 2a3d
00000300: 692b c1bd 886a c6bd f6ad 58bd 9f28 943d
00000310: 4a67 6e3c b3c2 a23a 1a71 f1bd 95a3 74bd
00000320: 3c3e d43d 0c95 043e ee5b ac3d cee9 013e
00000330: 5c3b 003e bcde e4bc 2df5 043d 18e7 cdbd
00000340: 5618 003e 2a37 e7bb 1538 9c3b bafc 5c3d
00000350: 6dae 493d 5b69 8c3d 5768 57bd 2908 cc3d
00000360: 1ec8 bbbd fabc 0dbc da5a ae3d e180 28bd
00000370: ab2f f73d 4535 0bbe 6468 3c3d ea02 153e
00000380: b27a 19be 2546 c8bc ea48 0e3d 974b c33d
00000390: b129 06be 15d6 87bd 9b90 d4bd a9be a33c
000003a0: 2075 fd3c d0a1 c1bd 11e6 84bc 0287 4dbe
000003b0: 1466 2f3d f6dd c03d aab2 6abe 37e8 3f3e
000003c0: 19ec 2dbe 762b 243d 169a 793d 15d5 6fbe
000003d0: 6220 6b3e 73ff ebbd 123d b0bc 8078 ff3d
000003e0: 0e1b 14be 12d9 8c3e e68e 84bd be0a 37be
000003f0: 3af9 09bd 1d69 18ba 0001 0c3d ce31 40bd

conv2.bias f4 [16]
-0.20209277 -0.7729499 -0.013550124 -0.037271213 -0.023878746 0.050129615 0.9664318 0.4177681
0.2897058 0.1533438 -0.4898479 -0.098925605 0.31954855 -0.28869152 0.28388977 -0.26548323
00000000: 68f1 4ebe 0be0 45bf 5701 5ebc b3a9 18bd
00000010: 5c9d c3bc b654 4d3d 1368 773f b3e5 d53e
00000020: 5254 943e 2806 1d3e 58cd fabe 8299 cabd
00000030: de9b a33e 60cf 93be 005a 913e 6bed 87be

fc1.weight f4 [120, 400]
-0.045504265 -0.06022827 -0.04712393 -0.012250645 0.04028818 -0.005767985 0.035553403 -0.01872604
0.05212048 0.043140467 -0.052569088 0.019538146 0.013070867 -0.013505356 0.0049076364 -0.021393001
0.040402573 0.030995598 0.022924129 0.0050764987 -0.0130195115 0.039078597 -0.017775869 0.013710061
-0.009026718 -0.13259894 -0.108340375 -0.0631219 -0.08724516 -0.07566148 -0.02613709 -0.02958274
-0.09853025 -0.054604337 0.024468211 -0.034980208 -0.06697236 -0.051752888 -0.05590094 -0.015305951
0.011747048 -0.031716976 0.00048742563 0.010804361 0.02198892 0.08879018 0.06215475 0.02907899
0.021458127 0.034729384 -0.009488968 -0.048209038 -0.035311576 0.030128306 -0.020168288 -0.052899033
-0.016913425 -0.037056673 0.040226158 -0.021736402 0.0035701962 0.0047738706 -0.018916884 0.0109826485
-0.040796258 0.016093839 0.023379007 0.008191222 -0.045166727 -0.03787153 -0.027009688 0.0325176
-0.018695299 0.009070515 0.046091802 -0.046158664 -0.03292616 -0.04568164 -0.032987077 -0.12409305
-0.027568044 -0.042477 -0.047766916 -0.05878744 -0.0446829 -0.055193838 -0.01940983 0.04236757
-0.01970252 -0.07750403 0.016854066 0.053314947 -0.041742276 -0.05193174 0.025849437 -0.07309344
-0.015437808 -0.05771571 -0.068540856 -0.027977364 -0.02842162 0.030842513 -0.020334033 -0.006990445
0.028162992 -0.025639134 0.048254117 -0.029737897 0.08356146 0.008847336 0.004905843 -0.0055629713
-0.018304205 0.04589667 -0.0077833654 -0.021085246 -0.009116598 0.03815946 0.030828305 -0.026098723
0.0061316113 -0.029738085 -0.016982254 -0.022074927 0.0062456816 -0.047583587 -0.021565413 -0.042118438
0.016413692 -0.03140982 0.0362437 0.06683292 0.009636365 0.04870422 -0.014552299 0.09195147
-0.01683464 0.037320588 0.019442907 -0.060166594 0.04787919 -0.014853465 -0.02980394 -0.048698373
-0.030260662 0.01790738 0.0034485592 -0.058852408 0.019100562 -0.03599753 0.07776477 -0.024831548
-0.023277313 0.013007139 0.035728097 -0.046828296 0.0050098784 0.02437172 -0.0112932585 -0.006544188
0.014019753 -0.013225494 0.0008560378 0.011911447 -0.018722046 0.0032464813 0.017648 0.028656451
-0.05435027 0.036126245 0.018248606 -0.014180004 0.05384282 0.082196794 0.10013884 0.056918524
0.030707892 -0.007837345 -0.018613212 0.04583986 0.00738224 0.03236324 -0.015330893 0.038503204
0.027794912 -0.047778327 -0.012574174 -0.062064998 0.018007971 0.00877434 0.027941888 -0.016808337
0.02689881 -0.016903933 0.007560858 0.025105791 0.0222682 0.028168006 -0.03530884 0.02612134
-0.09954789 0.010583935 -0.022351075 0.011064534 -0.031578895 -0.009777606 -0.013275308 0.0023134572
0.0028331897 0.0041053146 0.015498716 0.037418697 -0.0605061 -0.018336974 -0.033944383 -0.084711015
0.04646125 0.012807363 -0.01818208 0.03458734 -0.028372204 -0.047206394 0.01733008 0.03851573
0.044189923 0.02346365 0.08093689 0.03262486 0.0053092125 0.007393044 0.024202032 -0.02078498
0.015391606 0.0543675 -0.024585333 0.062372416 0.025609653 -0.0417671 -0.072924234 -0.011023907
-0.045710895 0.006241223 -0.0048293173 0.03885591 -0.052885287 -0.03103107 0.031985294 0.059897374
-0.015994329 0.056176167 0.086711705 0.0019460706 -0.07114716 -0.08928745 -0.04878527 0.070713244
00000000: ae62 3abd ebb1 76bd 0605 41bd eeb6 48bc
00000010: 3805 253d 5d01 bdbb 72a0 113d 5a67 99bc
00000020: 497c 553d 0fb4 303d af52 57bd 760e a03c
00000030: 3127 563c 9245 5dbc 3dd0 a03b 6040 afbc
00000040: 2b7d 253d 7bea fd3c 62cb bb3c c258 a63b
00000050: ca4f 55bc e110 203d b39e 91bc 2aa0 603c
00000060: cde4 13bc 04c8 07be 8fe1 ddbd 0e46 81bd
00000070: 97ad b2bd 68f4 9abd 731d d6bc 8157 f2bc
00000080: 3aca c9bd cca8 5fbd 8f71 c83c 6847 0fbd
00000090: ce28 89bd d6fa 53bd 62f8 64bd d0c5 7abc
000000a0: b176 403c a9e9 01bd 298d ff39 c604 313c
000000b0: 1c22 b43c a0d7 b53d fb95 7e3d 1037 ee3c
000000c0: f4c8 af3c 6640 0e3d 9e77 1bbc d776 45bd
000000d0: dfa2 10bd a3cf f63c f737 a5bc a8ac 58bd
000000e0: 068e 8abc bdc8 17bd 2fc4 243d 8a10 b2bc
000000f0: f4f9 693b 216e 9c3b 95f7 9abc 91f0 333c
00000100: fa19 27bd 3ad7 833c 5585 bf3c 7a34 063c
00000110: bf00 39bd 2d1f 1bbd 6c43 ddbc 2d31 053d
00000120: e226 99bc 7f9c 143c c2ca 3c3d de10 3dbd
00000130: 95dd 06bd ac1c 3bbd 751d 07bd 7f24 febd
00000140: 61d6 e1bc 5dfc 2dbd 3ea7 43bd 19cb 70bd
00000150: 6b05 37bd ef12 62bd 5d01 9fbc 9e89 2d3d
00000160: 2e67 a1bc 6fba 9ebd 8a11 8a3c c660 5a3d
00000170: f3f9 2abd 60b6 54bd 33c2 d33c 03b2 95bd
00000180: dcee 7cbc 4f67 6cbd 265f 8cbd c930 e5bc
00000190: 75d4 e8bc 70a9 fc3c 8f93 a6bc 1a10 e5bb
000001a0: 13b6 e63c 2909 d2bc 1ca6 453d e49c f3bc
000001b0: 4522 ab3d 6bf4 103c 32c1 a03b 9649 b6bb
000001c0: b3f2 95bc 26fe 3b3d 9a0b ffbb f7ba acbc
000001d0: c95d 15bc 184d 1c3d a48b fc3c fdcc d5bc
000001e0: afeb c83b 499d f3bc 5e1e 8bbc 7ad6 b4bc
000001f0: 93a8 cc3b 02e7 42bd f3a9 b0bc 6284 2cbd
00000200: 0276 863c 95a7 00bd 4674 143d b3df 883d
00000210: d8e1 1d3c 147e 473d c46c 6ebc 0d51 bc3d
00000220: cde8 89bc 79dd 183d bb46 9f3c 3f71 76bd
00000230: f81c 443d f35b 73bc 6427 f4bc f277 47bd
00000240: 35e5 f7bc 7fb2 923c 3901 623b 390f 71bd
00000250: c878 9c3c 2572 13bd 2343 9f3d 886b cbbc
00000260: 10b0 bebc e51b 553c a057 123d 07cf 3fbd
00000270: e829 a43b 34a7 c73c 5c07 39bc a170 d6bb
00000280: 1bb3 653c beaf 58bc b967 603a 3b28 433c
00000290: fa5e 99bc ebc2 543b 8a92 903c efc0 ea3c
000002a0: 649e 5ebd 1df9 133d 1a7e 953c 3f53 68bc
000002b0: 4a8a 5c3d cb56 a83d 9815 cd3d 6623 693d
000002c0: 1e8f fb3c 3568 00bc bc7a 98bc 94c2 3b3d
000002d0: b8e6 f13b 518f 043d 6d2e 7bbc 89b5 1d3d
000002e0: 28b2 e33c 35b3 43bd e903 4ebc de37 7ebd
000002f0: 7485 933c 40c2 0f3c 63e6 e43c a3b1 89bc
00000300: e55a dc3c 1e7a 8abc 13c1 f73b a9aa cd3c
00000310: cd6b b63c 97c0 e63c 01a0 10bd 6cfc d53c
00000320: c4df cbbd 3e68 2d3c 9a19 b7bc 0548 353c
00000330: df58 01bd 4132 20bc ad80 59bc 5f9d 173b
00000340: 09ad 393b e085 863b 54ee 7d3c 5944 193d
00000350: 3fd5 77bd 6c37 96bc 4409 0bbd f87c adbd
00000360: 274e 3e3d f9d5 513c 96f2 94bc 74ab 0d3d
00000370: d36c e8bc 7e5b 41bd d0f7 8d3c acc2 1d3d
00000380: 7e00 353d d736 c03c 3dc2 a53d a5a1 053d
00000390: e7f8 ad3b 5941 f23b 5743 c63c 4345 aabc
000003a0: 132d 7c3c 75b0 5e3d 2e67 c9bc 387a 7f3d
000003b0: 56cb d13c fb13 2bbd 4d59 95bd 9e9d 34bc
000003c0: 593b 3bbd 2c83 cc3b 403f 9ebb 6027 1f3d
000003d0: 3e9e 58bd df34 febc 0303 033d f356 753d
000003e0: 8a06 83bc fb18 663d e895 b13d 4b13 ff3a
000003f0: 9ab5 91bd 57dc b6bd 10d3 47bd 1bd2 903d

fc1.bias f4 [120]
0.1662276 0.09133233 0.024561193 -0.088512674 0.14342009 -0.026865445 0.0926817 0.1160236
-0.0540024 -0.06678014 -0.024893567 0.13706908 -0.010002681 -0.14141275 0.2650509 0.05459557
0.0001795106 -0.06842029 0.0078114364 0.089854516 -0.14933735 0.09119368 0.007510064 0.07600727
-0.07305086 -0.020662818 -0.02516215 0.06852138 0.033209287 0.12229516 -0.12859403 0.13030387
0.05498272 0.08736567 -0.026364237 -0.055356212 0.014250625 -0.044806737 -0.080701515 0.1455228
0.20710722 0.059875567 -0.043145947 0.01644269 -0.006773424 0.10335852 -0.044449765 0.09676183
0.054818973 0.11614949 0.008599088 -0.11138531 -0.010571098 0.025330104 -0.039785367 -0.04417412
-0.0022489356 0.08498198 -0.0017816122 0.15362135 0.13281596 -0.07782385 0.06296723 -0.025236996
-0.08593457 -0.025877407 -0.03594209 -0.0122850565 -0.06992638 0.05248241 0.12599093 -0.0151255615
-0.018716104 -0.014362879 0.03465473 -0.028179225 0.047239423 0.16770202 0.032751106 0.01697182
-0.16887651 0.01562786 -0.041820932 0.009729106 -0.037718397 0.13365075 0.14033602 -0.036211777
-0.04612373 0.14156282 -0.000249578 0.07875899 0.08139349 0.023131143 0.057113953 -0.05994847
0.18255055 0.015137245 -0.04381135 0.08499854 -0.16882832 0.0031210317 -0.09067816 0.13749468
0.0223243 0.01400187 -0.06898584 -0.0006692839 0.081341945 0.065617956 -0.042837817 0.06776058
-0.06792867 -0.036921535 -0.0859735 0.011483932 0.051230628 -0.019824203 0.013010296 -0.010592331
00000000: 9137 2a3e 720c bb3d 8e34 c93c 2246 b5bd
00000010: b7dc 123e ec14 dcbc e7cf bd3d c89d ed3d
00000020: 9f31 5dbd 07c4 88bd 98ed cbbc d65b 0c3e
00000030: 49e2 23bc 81ce 10be c0b4 873e 9b9f 5f3d
00000040: 033b 3c39 f01f 8cbd 14f7 ff3b a505 b83d
00000050: e4eb 18be c1c3 ba3d fc16 f63b b3a9 9b3d
00000060: b09b 95bd 1245 a9bc da20 cebc f054 8c3d
00000070: 7606 083d e375 fa3d 27ae 03be 616e 053e
00000080: 9035 613d c6ec b23d d0f9 d7bc 32bd 62bd
00000090: 747b 693c 4587 37bd d646 a5bd ee03 153e
000000a0: ea13 543e 1540 753d ceb9 30bd d2b2 863c
000000b0: 99f3 ddbb a2ad d33d f510 36bd 112b c63d
000000c0: dc89 603d c9df ed3d 30e3 0c3c fb1d e4bd
000000d0: 6632 2dbc 1481 cf3c fbf5 22bd ecef 34bd
000000e0: e162 13bb 080b ae3d fc84 e9ba ea4e 1d3e
000000f0: e800 083e 1c62 9fbd f7f4 803d d1bd cebc
00000100: 77fe afbd dbfc d3bc 0338 13bd 4347 49bc
00000110: 9035 8fbd ccf7 563d c403 013e 34d1 77bc
00000120: 8452 99bc 4852 6bbc 1ef2 0d3d 1ed8 e6bc
00000130: 207e 413d 14ba 2b3e 0626 063d 7c08 8b3c
00000140: f7ed 2cbe ff05 803c 6d4c 2bbd d466 1f3c
00000150: 9b7e 1abd bedb 083e 3fb4 0f3e cd52 14bd
00000160: 3cec 3cbd d8f5 103e cbd9 82b9 654c a13d
00000170: a1b1 a63d 867d bd3c 52f0 693d 878c 75bd
00000180: 88ee 3a3e 3502 783c 8873 33bd b713 ae3d
00000190: 55e1 2cbe 398a 4c3b 79b5 b9bd 68cb 0c3e
000001a0: 73e1 b63c 1968 653c 7348 8dbd e272 2fba
000001b0: 9b96 a63d b562 863d b576 2fbd 0fc6 8a3d
000001c0: 301e 8bbd 093b 17bd e012 b0bd 1a27 3c3c
000001d0: 35d7 513d 5e66 a2bc 2329 553c 758b 2dbc

fc2.weight f4 [84, 120]
-0.060463823 -0.012313974 0.1225875 -0.07044979 -0.065795794 -0.0679004 0.0037622026 0.090529084
-0.00913372 -0.0075537865 -0.03582292 0.008026938 -0.03531187 -0.15765063 0.1282657 -0.035603035
-0.07841392 -0.008928693 -0.035431534 -0.035731055 -0.00014992376 0.0610628 -0.07989154 -0.09684667
0.10990626 0.035995506 0.06707865 -0.0283069 -0.0320278 0.09725932 -0.016484458 -0.02944026
-0.0020358467 -0.030175073 0.009627675 0.08348216 0.044278275 0.053955887 -0.0021840502 -0.07907307
-0.010890494 0.08723612 -0.06852573 0.030609792 -0.07718066 -0.08387997 -0.0813945 -0.001622827
0.07577065 -0.05876096 0.06967913 -0.10202239 0.05876519 -0.016299522 -0.07913259 0.010811026
-0.09103255 0.09236646 0.09798606 -0.041586295 0.0368178 0.03335122 0.10940165 0.08302109
-0.09897945 0.017721843 0.047421444 -0.03071597 -0.033048917 0.034327433 0.111570664 0.023144498
-0.06786152 -0.03500181 -0.053813986 0.10502988 -0.0037298433 0.08286317 0.029758269 0.06831715
-0.06374345 -0.04901699 0.051999547 -0.012207166 -0.07261358 -0.09858381 0.026016653 0.051191114
0.016150407 -0.075333446 0.06304404 -0.07145388 0.05161727 -0.05066311 0.06374892 -0.054653313
-0.023374751 0.049534146 0.09964716 0.046738613 -0.07436755 0.058683835 -0.022918705 0.09767264
0.09799396 0.0136971595 -0.07418154 -0.016001543 -0.09360333 -0.06418774 0.035253182 0.0818586
0.045287866 -0.049505245 -0.0496863 -0.005146486 0.11585342 -0.027118186 -0.07154937 -0.031229896
-0.040217668 0.056938916 0.032278847 -0.11411758 -0.026422475 0.07631353 -0.033407956 -0.064323284
-0.033880565 0.09352176 0.07416323 -0.020234104 0.0871432 -0.09486043 -0.092589244 -0.13052715
-0.01994632 0.041441545 0.047085468 -0.08574897 0.020084057 -0.073473826 -0.03241176 0.026148621
-0.031459127 0.07761747 -0.031553645 0.059920337 -0.056616943 0.026758794 -0.113719195 -0.10706619
0.054764364 0.065100454 -0.017198607 0.0843444 0.08220495 -0.095019296 0.06849787 -0.014901054
-0.051028352 -0.020110933 -0.015288378 0.09834085 0.026042206 -0.07283534 -0.030131424 -0.06408285
-0.09323284 0.021123145 -0.043071534 -0.059924558 0.025270663 -0.019432258 0.07455091 0.03662711
0.07141793 0.05774109 -0.023989841 -0.04001565 -0.009446406 -0.07560644 0.027132392 0.025066294
0.049831804 0.04578308 0.06976741 0.0870467 0.095225304 0.0743799 0.016661897 0.00740424
-0.12685156 -0.083844066 0.052297674 0.0005555385 -0.02778725 -0.08800172 0.05660609 -0.03685024
0.10647025 0.012074605 0.07958348 -0.07025646 0.034152266 -0.1631419 0.07977383 0.021816801
-0.080678076 0.0145111745 0.075353056 -0.024646778 -0.10180452 -0.030464023 -0.11856162 -0.0108606
-0.026528 0.06292575 0.07378489 0.031167166 -0.03506879 0.025772817 0.042106137 0.020757517
-0.039776836 0.13424152 0.08157981 0.03658522 0.04796294 -0.048027676 -0.049784206 0.01950093
0.0057027875 0.061675444 -0.037249465 -0.042339917 -0.086224794 -0.008623492 -0.10842476 -0.0010488351
-0.043875966 -0.03760339 -0.045000404 0.21852161 0.08424112 0.048737712 0.034920122 0.061189506
0.18367107 0.11153356 -0.015792098 -0.06349404 0.14285801 -0.07342987 -0.010185907 -0.16316155
00000000: eaa8 77bd 8dc0 49bc 280f fb3d fb47 90bd
00000010: f2bf 86bd 5d0f 8bbd 498f 763b 5067 b93d
00000020: 99a5 15bc c185 f7bb 0ebb 12bd 6b83 033c
00000030: 2ea3 10bd 2b6f 21be 1558 033e 7dd4 11bd
00000040: 7a97 a0bd a749 12bc a820 11bd ba5a 12bd
00000050: da34 1db9 fd1c 7a3d 2d9e a3bd 8c57 c6bd
00000060: 8916 e13d 0670 133d 8860 893d dfe3 e7bc
00000070: 952f 03bd e52f c73d 6a0a 87bc b32c f1bc
00000080: d76b 05bb b731 f7bc 65bd 1d3c b2f8 aa3d
00000090: 235d 353d d900 5d3d 4822 0fbb 10f1 a1bd
000000a0: 0b6e 32bc daa8 b23d 3857 8cbd 63c1 fa3c
000000b0: e510 9ebd 43c9 abbd 29b2 a6bd 0ab5 d4ba
000000c0: a42d 9b3d 55af 70bd efb3 8e3d 1df1 d0bd
000000d0: c5b3 703d 9386 85bc 4410 a2bd bb20 313c
000000e0: 466f babd a02a bd3d eaac c83d 6456 2abd
000000f0: 43ce 163d 4a9b 083d f90d e03d f606 aa3d
00000100: bdb5 cabd 662d 913c fd3c 423d 0fa0 fbbc
00000110: 4d5e 07bd ec9a 0c3d 297f e43d 8899 bd3c
00000120: fbfa 8abd 0f5e 0fbd 0e6c 5cbd e819 d73d
00000130: 6370 74bb 2ab4 a93d 9dc7 f33c dde9 8b3d
00000140: ed8b 82bd 0ac6 48bd 7afd 543d 9100 48bc
00000150: 6eb6 94bd 4fe6 c9bd e020 d53c c6ad 513d
00000160: dc4d 843c 6c48 9abd 3c1d 813d 6956 92bd
00000170: a16c 533d 1f84 4fbd cb8e 823d 27dc 5fbd
00000180: 687c bfbc 51e4 4a3d cf13 cc3d fd70 3f3d
00000190: 044e 98bd 765e 703d 02c0 bbbc 9808 c83d
000001a0: 0fb1 c83d 0d6a 603c 7eec 97bd ab15 83bc
000001b0: 1ab3 bfbd dd74 83bd a465 103d 7ba5 a73d
000001c0: c57f 393d 03c6 4abd dd83 4bbd dba3 a8bb
000001d0: 8f44 ed3d f526 debc 7a88 92bd d7d5 ffbc
000001e0: 48bb 24bd c838 693d d336 043d 7ab6 e9bd
000001f0: f273 d8bc 454a 9c3d c8d6 08bd edbb 83bd
00000200: 59c6 0abd 5688 bf3d e4e2 973d fec1 a5bc
00000210: 2278 b23d 2f46 c2bd 6e9f bdbd e9a8 05be
00000220: 7766 a3bc 9cbe 293d b1dc 403d 289d afbd
00000230: 5287 a43c 7279 96bd 32c2 04bd a235 d63c
00000240: 49db 00bd e8f5 9e3d 653e 01bd 076f 753d
00000250: 2be7 67bd 4235 db3c 9ce5 e8bd 8545 dbbd
00000260: 9950 603d 6353 853d 18e4 8cbc c2bc ac3d
00000270: 125b a83d 7a99 c2bd 9c48 8c3d 8d23 74bc
00000280: 1b03 51bd afbf a4bc 1b7c 7abc ed66 c93d
00000290: 7756 d53c b22a 95bd 2dd6 f6bc df3d 83bd
000002a0: dcf0 bebd 720a ad3c c76b 30bd 7473 75bd
000002b0: 6c04 cf3c 6630 9fbc 26ae 983d 4f06 163d
000002c0: 9043 923d ec81 6c3d 5886 c4bc 73e7 23bd
000002d0: 19c5 1abc 8dd7 9abd c044 de3c d457 cd3c
000002e0: 6f1c 4c3d 0a87 3b3d 37e2 8e3d 8a45 b23d
000002f0: 7c05 c33d 7d54 983d 887e 883c 449f f23b
00000300: 60e5 01be 70b6 abbd 1636 563d 8fa1 113a
00000310: 16a2 e3bc 3f3a b4bd cadb 673d 47f0 16bd
00000320: 130d da3d 90d4 453c aafc a23d 9ee2 8fbd
00000330: 3fe3 0b3d ac0e 27be 7660 a33d 26b9 b23c
00000340: 8c3a a5bd 47c0 6d3c b452 9a3d 0ae8 c9bc
00000350: e37e d0bd b08f f9bc 6fd0 f2bd a8f0 31bc
00000360: 4051 d9bc 37df 803d 881c 973d 4952 ff3c
00000370: 4ba4 0fbd 8421 d33c 7c77 2c3d ab0b aa3c
00000380: 09ed 22bd 9c76 093e 5113 a73d 62da 153d
00000390: ca74 443d abb8 44bd 86ea 4bbd 6ac0 9f3c
000003a0: 73de ba3b 649f 7c3d e592 18bd 9f6c 2dbd
000003b0: a096 b0bd 8c49 0dbc cd0d debd 1179 89ba
000003c0: 49b7 33bd 0306 1abd 5852 38bd 21c4 5f3e
000003d0: 9c86 ac3d 32a1 473d 6708 0f3d d9a1 7a3d
000003e0: 4514 3c3e b56b e43d 6e5e 81bc 2a09 82bd
000003f0: 5f49 123e 6662 96bd cae2 26bc d213 27be

fc2.bias f4 [84]
0.14966366 -0.10130108 0.0873028 0.28600815 -0.0393078 -0.04135496 -0.24071185 0.12910824
-0.071346544 -0.07490055 0.39352962 0.25923643 0.096743755 -0.07875917 0.33045384 0.2939496
0.11077218 -0.05835234 0.2801074 0.08532262 -0.09148942 -0.09176935 -0.08535173 0.18942156
0.050486684 -0.08163919 0.010981843 -0.036088634 -0.06454312 -0.07119261 -0.057872258 -0.06601254
-0.03967171 0.005896816 -0.017414426 0.26293385 -0.15631983 0.020588355 -0.039498944 0.11150306
0.24963263 -0.24355571 0.09180555 -0.043723084 0.002704219 -0.0426995 0.013909532 -0.04521328
-0.026198816 -0.08863454 0.020560857 -0.07934436 0.33944985 0.0303172 -0.069181204 0.17521863
-0.08136209 0.2364757 -0.08830858 0.12223694 0.0634147 0.04510275 -0.09506468 0.24839982
0.111434445 -0.0046585714 0.015123242 -0.00058533426 -0.08130394 0.13507086 0.049192153 0.13188778
0.041856587 0.01212973 0.21608868 0.109570384 0.015296244 0.08141414 0.2758509 0.0980054
0.3434817 -0.066315815 -0.02267285 0.12201072
00000000: 6e41 193e f176 cfbd cfcb b23d a96f 923e
00000010: 3701 21bd d263 29bd 2b7d 76be f334 043e
00000020: 231e 92bd 7665 99bd b77c c93e a3ba 843e
00000030: 9721 c63d 7d4c a1bd 3f31 a93e 9080 963e
00000040: 86dc e23d dd02 6fbd 3d6a 8f3e a0bd ae3d
00000050: ce5e bbbd 92f1 bbbd e3cc aebd baf7 413e
00000060: 20cb 4e3d 7332 a7bd 30ed 333c add1 13bd
00000070: 2f2f 84bd 6ecd 91bd 760b 6dbd 9531 87bd
00000080: ce7e 22bd 143a c13b b3a8 8ebc 449f 863e
00000090: 4e12 20be e9a8 a83c a5c9 21bd b75b e43d
000000a0: b29f 7f3e ab66 79be 8c04 bc3d fa16 33bd
000000b0: 4439 313b ace5 2ebd cee4 633c 8f31 39bd
000000c0: e69e d6bc 0786 b5bd 3e6f a83c 4c7f a2bd
000000d0: 5fcc ad3e c75b f83c e0ae 8dbd 836c 333e
000000e0: 2ba1 a6bd b026 723e 21db b4bd 5c57 fa3d
000000f0: 91df 813d a9bd 383d 45b1 c2bd 865c 7e3e
00000100: be37 e43d eea6 98bb 79c7 773c 1e71 19ba
00000110: ae82 a6bd 0450 0a3e b67d 493d 970d 073e
00000120: d071 2b3d c6bb 463c 5a46 5d3e 7066 e03d
00000130: 199d 7a3c 75bc a63d 543c 8d3e 0eb7 c83d
00000140: d5dc af3e 96d0 87bd 6abc b9bc c2e0 f93d

fc3.weight f4 [10, 84]
0.2717507 -0.028928494 0.17782266 0.03408232 -0.06357182 0.026595812 -0.0074060387 0.060658224
-0.10027549 -0.030195318 0.29927844 -0.024729285 0.050766528 0.03922342 0.058271814 0.10786229
0.1314071 0.23935285 -0.13376965 0.01799913 0.028287811 0.10584381 0.05141111 0.17234074
0.14173621 0.18121713 -0.1270346 -0.009495337 0.040045276 0.090264305 0.14511783 0.064215615
-0.040547963 0.016168073 0.13353233 0.24258684 -0.06426139 -0.12001219 0.05921837 -0.14665456
-0.23173678 0.17146452 -0.056397848 0.073398314 -0.001103974 -0.070878305 -0.09142011 0.0032287005
-0.092573866 -0.12875795 0.079133034 0.02330831 0.01989017 -0.07951147 0.06639819 0.28700235
0.08436547 0.09613017 -0.0060450253 0.30477774 -0.2502939 -0.048945695 -0.15210122 0.034082215
0.01784444 0.0668948 -0.102671705 0.11363783 -0.020861542 -0.16458175 0.17439052 0.15350546
0.16223532 0.1441922 -0.003591765 -0.026254196 -0.16228807 -0.1637337 0.01089056 0.23039365
-0.3360842 0.09471401 0.04364356 0.048295673 0.13570006 0.028153855 -0.1074093 -0.13833699
0.23334317 0.10076028 0.28117344 0.23139645 0.06654058 -0.008651952 -0.19737464 -0.32350144
-0.17798899 -0.062595166 0.014071184 -0.28908113 -0.10969318 0.03869355 -0.050832618 0.074826725
0.10583931 -0.049344644 -0.03342395 0.059640385 -0.11998824 -0.034287546 -0.2781812 -0.081413105
0.058149144 -0.027416209 0.21599165 0.009698728 0.102802575 -0.08519788 0.0016572459 0.11952463
0.29372633 -0.0731407 -0.030303353 -0.06730803 -0.15076858 0.41842237 -0.24115442 0.021165796
-0.042308338 -0.071489856 0.06919562 -0.1301469 -0.04977135 0.08889036 -0.0872538 0.13027014
-0.25849617 0.045837123 -0.084537305 -0.20888029 -0.09744365 0.3017585 0.08709656 0.06017885
-0.1406825 0.03691579 0.13527413 -0.12049532 -0.048014008 0.11226401 -0.022680925 0.053477556
-0.14909624 0.2909276 -0.112431176 -0.12521754 -0.13080081 -0.03136926 0.06143579 -0.15255503
0.011050728 0.032157984 -0.13576402 0.3274085 -0.13583285 0.0773129 -0.04487496 -0.13646166
-0.09732439 -0.14364332 -0.07429732 0.07981741 -0.10542116 -0.0831694 -0.068149656 -0.021525867
0.026872573 -0.17526984 0.04801184 0.24924874 0.1137759 0.11876894 0.05079583 0.1923961
0.065883584 0.02835145 0.16188692 0.16635898 0.050087653 0.03931979 -0.05912402 0.017109156
-0.056957535 0.11440439 0.008658423 -0.049778618 0.0553013 -0.0023767077 0.1369618 -0.003496514
-0.08218499 -0.0024652486 -0.13547425 -0.1803382 -0.12175527 0.069235645 -0.05579836 0.17564768
0.07403223 0.025078883 -0.024188364 0.06322897 0.13846797 0.043030687 -0.0923555 -0.058231853
0.021765595 -0.009119773 -0.06177822 0.0030034555 0.30559888 0.11452057 0.058001064 0.032121997
0.09240552 -0.14744705 0.12278074 -0.0847595 -0.1705576 0.12646388 -0.09748867 0.14385471
-0.11883997 -0.005203708 0.22961308 0.09761604 0.1613483 0.081115186 -0.026585685 0.10842201
0.04093364 0.064794995 -0.22054128 0.29791048 -0.075438984 0.1384004 -0.04073406 -0.070411384
0.10932889 -0.07122031 -0.031167982 -0.037460465 -0.0695756 -0.030258508 -0.10023064 0.25640136
00000000: e822 8b3e 73fb ecbc 2517 363e e799 0b3d
00000010: f131 82bd 76df d93c 5bae f2bb c274 783d
00000020: 3c5d cdbd 2c5c f7bc 063b 993e 1295 cabc
00000030: 90f0 4f3d bda8 203d 6dae 6e3d e8e6 dc3d
00000040: 958f 063e ea18 753e e9fa 08be e972 933c
00000050: d7bb e73c a4c4 d83d 7594 523d 177a 303e
00000060: 4c23 113e fc90 393e 5c15 02be 5492 1bbc
00000070: 8406 243d 7edc b83d c599 143e 7a83 833d
00000080: 9f15 26bd e872 843c b3bc 083e af68 783e
00000090: 7a9b 83bd f3c8 f5bd f68e 723d 9d2c 16be
000000a0: 684c 6dbe 6594 2f3e 6e01 67bd db51 963d
000000b0: 38b3 90ba a528 91bd 773a bbbd 9b98 533b
000000c0: 5e97 bdbd 20d9 03be 8010 a23d 12f1 be3c
000000d0: b6f0 a23c e9d6 a2bd c6fb 873d f9f1 923e
000000e0: cec7 ac3d e5df c43d 5915 c6bb d40b 9c3e
000000f0: 8626 80be 487b 48bd 6cc0 1bbe cb99 0b3d
00000100: 812e 923c 2400 893d 8b45 d2bd f3ba e83d
00000110: d3e5 aabc 1e88 28be 6e93 323e 8930 1d3e
00000120: 0421 263e 1fa7 133e d163 6bbb 0a13 d7bc
00000130: d82e 26be cfa9 27be 526e 323c 50ec 6b3e
00000140: 3a13 acbe 6bf9 c13d 97c3 323d afd1 453d
00000150: f5f4 0a3e eaa2 e63c 68f9 dbbd 36a8 0dbe
00000160: 83f1 6e3e 685b ce3d f7f5 8f3e 31f3 6c3e
00000170: 6d46 883d ebc0 0dbc 941c 4abe fba1 a5be
00000180: bf42 36be e531 80bd d38a 663c 7102 94be
00000190: d1a6 e0bd 217d 1e3d dd35 50bd c13e 993d
000001a0: 48c2 d83d 9c1d 4abd 8de7 08bd 7a49 743d
000001b0: 65bc f5bd 1971 0cbd c46d 8ebe eabb a6bd
000001c0: cc2d 6e3d f597 e0bc ea2c 5d3e 6ae7 1e3c
000001d0: 288a d23d 3a7c aebd f237 d93a 54c9 f43d
000001e0: 4c63 963e cbca 95bd bd3e f8bc cbd8 89bd
000001f0: 1463 1abe 753b d63e 2ff1 76be e463 ad3c
00000200: 824b 2dbd 4669 92bd 6fb6 8d3d 3b45 05be
00000210: 0bdd 4bbd 260c b63d 1fb2 b2bd 8965 053e
00000220: 9c59 84be b5bf 3b3d e521 adbd b7e4 55be
00000230: 8990 c7bd 1780 9a3e ae5f b23d 197e 763d
00000240: 130f 10be 0335 173d 4d85 0a3e 40c6 f6bd
00000250: 56aa 44bd acea e53d 59cd b9bc 480b 5b3d
00000260: afac 18be 76f4 943e 5142 e6bd 0739 00be
00000270: a6f0 05be 0e7d 00bd 18a4 7b3d 6337 1cbe
00000280: 1d0e 353c 17b8 033d b905 0bbe 16a2 a73e
00000290: c417 0bbe 3a56 9e3d cece 37bd 9bbc 0bbe
000002a0: 0352 c7bd 3c17 13be 3129 98bd 4f77 a33d
000002b0: 0de7 d7bd b854 aabd 0c92 8bbd 0457 b0bc
000002c0: df23 dc3c f079 33be 10a8 443d 103b 7f3e
000002d0: 5703 e93d 213d f33d 4a0f 503d 7c03 453e
000002e0: f9ed 863d 4d41 e83c afc5 253e 025a 2a3e
000002f0: b628 4d3d ca0d 213d 072c 72bd 8028 8c3c
00000300: 4e4c 69bd d94c ea3d 0fdc 0d3c aae4 4bbd
00000310: 9e83 623d 8ac2 1bbb b73f 0c3e c525 65bb
00000320: 9b50 a8bd 0290 21bb c3b9 0abe 94aa 38be
00000330: d45a f9bd 6bcb 8d3d d28c 64bd fcdc 333e
00000340: 369e 973d 3b72 cd3c ad26 c6bc 317e 813d
00000350: 8cca 0d3e f240 303d e124 bdbd 8684 6ebd
00000360: c34d b23c 1a6b 15bc 290b 7dbd 9fd5 443b
00000370: 7577 9c3e c389 ea3d 8692 6d3d 5b92 033d
00000380: 1b3f bd3d 5cfc 16be 7874 fb3d 6496 adbd
00000390: a7a6 2ebe bf7f 013e 24a8 c7bd a64e 133e
000003a0: 5f62 f3bd de83 aabb b11f 6b3e ebea c73d
000003b0: 7d38 253e b81f a63d 39ca d9bc 5c0c de3d
000003c0: 08aa 273d 3db3 843d 93d5 61be b987 983e
000003d0: c17f 9abd d6b8 0d3e c2d8 26bd d833 90bd
000003e0: d3e7 df3d f4db 91bd ff53 ffbc 2570 19bd
000003f0: a77d 8ebd b1e0 f7bc b945 cdbd 0a47 833e

fc3.bias f4 [10]
-0.11360184 -0.5447164 0.23987712 0.27283308 0.41494092 -0.19569156 0.1300895 -0.3738077
0.51896536 -0.2201337
00000000: 15a8 e8bd 8972 0bbf 59a2 753e c7b0 8b3e
00000010: 2373 d43e 5e63 48be 2f36 053e b963 bfbe
00000020: eada 043f bb6a 61be
